histograms/histogram_0.weight.mean_Hyper__Walker2DBulletEnv-v0_seed4_scale1.npy (npy, 62072 bytes, 1 tensors)

array f8 [7743]
-5.4607458878308535e-05 -0.0005394628969952464 -0.001082408707588911 0.0011280286125838757 0.004774054512381554 -1.661557689658366e-05 -0.000878953083883971 -0.000904420274309814
-0.0008400930091738701 -0.00069493951741606 -0.00038138782838359475 0.00021848190226592124 0.0006955454591661692 0.0005762204527854919 0.00015623221406713128 -0.0001513537863502279
-0.00023660210717935115 -0.0002479951945133507 -0.0001430241682101041 0.0002071206399705261 0.0005129709024913609 0.0005687306402251124 0.0002131139044649899 -0.0002296373131684959
-0.0003862030862364918 -0.0004057181649841368 -0.00032855913741514087 -0.00016750904615037143 8.553936640964821e-05 0.00022608134895563126 0.00016254920046776533 5.2805524319410324e-05
4.295383405406028e-06 -5.348274498828687e-05 -2.980059252877254e-05 4.8971960495691746e-05 0.00011676926806103438 0.00014797868789173663 4.734164031106047e-05 -8.706351218279451e-05
-0.00011532520147738978 -0.00012638232146855444 -4.8907779273577034e-05 1.5210700439638458e-05 5.794937169412151e-05 7.272301445482299e-05 6.306423165369779e-05 4.7655201342422515e-05
-1.8468572307028808e-05 -3.632788866525516e-05 2.485588083800394e-06 -8.232774234784301e-06 -3.402719084988348e-05 -5.384900214266963e-05 -5.017011790187098e-05 -2.694519207580015e-05
4.296291081118397e-06 5.011112807551399e-05 7.620485848747194e-05 2.983604463224765e-05 -1.6052699720603414e-05 -1.7126638340414502e-05 -3.471870149951428e-05 2.5863707833195804e-06
2.0141658751526847e-05 3.0095139663899317e-05 -2.8293630748521537e-05 -2.6600173441693187e-05 -4.302888555685058e-05 1.7195343389175832e-05 5.6100834626704454e-05 -7.560149697383167e-06
-1.1716851986420806e-06 -5.041731128585525e-05 -2.9232898668851703e-05 2.7094609322375618e-05 -3.704466507770121e-06 -3.8874277379363775e-05 -2.1817522792844102e-05 -3.0269841317931423e-06
4.7611232730560005e-05 5.189848525333218e-05 2.3750753825879656e-05 -4.3328585888957605e-05 -2.96434427582426e-05 -5.584358859778149e-06 -7.549059773737099e-06 -3.473013930488378e-05
2.0002673409180716e-05 2.2332756998366676e-05 3.089822712354362e-05 -3.7240199617372127e-06 -7.728268974460661e-05 3.885948899551295e-05 5.854370101587847e-05 -7.276602264028043e-05
-3.768046371988021e-05 7.561610254924744e-05 0.00010802145698107779 -5.378111018217169e-05 -4.86874851048924e-05 -2.3135489755077288e-06 4.662585706682876e-05 2.306866372236982e-05
-4.467871258384548e-05 -4.672605427913368e-05 -1.7538208339828998e-05 4.70830054837279e-05 1.195791810459923e-05 -6.339870014926419e-05 8.812299711280502e-06 3.8834637962281704e-05
-4.631037882063538e-06 -7.151775935199112e-05 2.25611529458547e-07 0.00012171892012702301 5.734865044360049e-05 -8.342770888702944e-05 -7.14864581823349e-05 5.83157961955294e-05
2.3549449906568043e-05 4.7402005293406546e-05 1.4077245396038052e-05 -2.6627203624229878e-05 9.383247743244283e-06 3.543040293152444e-05 -2.3927324946271256e-05 -7.568234286736697e-05
4.327530768932775e-05 0.00012438099656719714 -0.00011096771049778908 -1.9428565792622976e-05 8.57301929499954e-05 -1.37711685965769e-05 -9.170472367259208e-06 -6.073656550142914e-05
1.6186519133043475e-05 -2.463040618749801e-05 1.8981683751917444e-05 2.016599682974629e-05 1.630597580515314e-05 7.281558646354824e-05 -6.634360033785924e-05 -0.0001432342833140865
-2.1047642803750932e-05 0.000175078195752576 -5.983461596770212e-05 -8.219127630582079e-05 2.7808357117464766e-05 3.899270814144984e-05 -0.00014687074872199446 -7.450194971170276e-06
0.00020885463163722306 2.993311863974668e-05 -7.873187132645398e-05 -6.320771353784949e-05 0.00011781109787989408 -2.0956522348569706e-05 -6.8015169745194726e-06 2.8998225388932042e-05
3.1767573091201484e-05 -4.130733577767387e-05 -7.660407572984695e-05 -6.884056347189471e-08 8.242863259511068e-05 -2.868675801437348e-05 -0.0001153789198724553 5.8119010645896196e-05
1.0416160876047798e-05 -5.119984416523948e-05 2.936364762717858e-05 2.8783819288946688e-05 1.0829102393472567e-05 1.4094037396716885e-05 -1.7000065781758167e-05 1.2973658158443868e-05
7.578320219181478e-05 -6.456674600485712e-05 -0.0001851552224252373 0.0001468915434088558 1.7789956473279744e-05 -0.00012857664842158556 0.00013668937026523054 3.804849984589964e-05
-0.00015374342910945415 2.154445246560499e-05 9.02211177162826e-05 -2.7526442863745615e-05 -3.078026929870248e-05 0.00011735453153960407 -0.00010826525976881385 -0.00010579320223769173
0.00015340594109147787 1.4611106962547638e-05 -4.0132308640750125e-05 2.0112782294745557e-05 -1.0864316209335811e-05 -6.425492756534368e-05 0.0001858488831203431 -7.861297490308061e-05
-3.00190022244351e-05 3.7204223190201446e-05 -0.00013666787708643824 8.462362893624231e-05 0.00011342628567945212 -0.00017049048619810492 5.647981015499681e-05 0.00011482910485938191
-0.0002245045470772311 8.413687464781106e-05 0.00013279999257065356 -0.0001317543355980888 -6.0004182159900665e-05 0.00023341778432950377 -0.00021604217181447893 3.8303164728858974e-07
0.00024252443108707666 -0.0002342384250368923 4.946613626088947e-05 0.0001570953318150714 -0.0002490059705451131 0.0001475999888498336 2.799497451633215e-07 -0.0001511087320977822
0.00013590269372798502 5.741148015658837e-06 -6.892569945193827e-05 1.2883529052487575e-05 -1.1567026376724243e-06 -8.066922600846738e-05 0.0001916181790875271 4.891421667707618e-06
-0.00013991675223223865 0.00011016136704711244 7.007318345131353e-05 -0.0001613077038200572 0.0001771282113622874 -0.00018722342792898417 8.252618135884404e-05 8.165750477928668e-05
-0.0003426920739002526 0.00029983403510414064 -0.00024078719434328377 0.00011231773532927036 0.0003306294674985111 -0.00048102764412760735 0.00021634978475049138 0.00020621610747184604
-0.0004503199306782335 0.0003686367708723992 9.475460683461279e-05 -0.00032330668182112277 0.00013309242785908282 9.500558371655643e-05 -0.0003217107732780278 0.00030794620397500694
00000000: 0000 0000 4aa1 0cbf 0000 00c0 57ad 41bf
00000010: 0000 0080 f3bb 51bf 0000 0080 4b7b 523f
00000020: 0000 0080 f58d 733f 0000 00c0 356c f1be
00000030: 0000 0060 31cd 4cbf 0000 00c0 d3a2 4dbf
00000040: 0000 0000 3687 4bbf 0000 0040 93c5 46bf
00000050: 0000 0040 a0fe 38bf 0000 0040 09a3 2c3f
00000060: 0000 0080 a8ca 463f 0000 0000 b0e1 423f
00000070: 0000 0080 487a 243f 0000 0020 97d6 23bf
00000080: 0000 00a0 0c03 2fbf 0000 0040 ab40 30bf
00000090: 0000 0040 18bf 22bf 0000 00c0 d025 2b3f
000000a0: 0000 00a0 1ccf 403f 0000 00c0 dba2 423f
000000b0: 0000 0080 eaee 2b3f 0000 0080 5919 2ebf
000000c0: 0000 00a0 694f 39bf 0000 0040 d296 3abf
000000d0: 0000 00c0 4e88 35bf 0000 00c0 abf4 25bf
000000e0: 0000 0020 736c 163f 0000 0000 08a2 2d3f
000000f0: 0000 0000 3f4e 253f 0000 0000 70af 0b3f
00000100: 0000 0000 2204 d23e 0000 0020 550a 0cbf
00000110: 0000 0020 893f ffbe 0000 00c0 e7ac 093f
00000120: 0000 00c0 409c 1e3f 0000 0040 5765 233f
00000130: 0000 0060 16d2 083f 0000 00c0 bbd2 16bf
00000140: 0000 00e0 573b 1ebf 0000 00e0 af90 20bf
00000150: 0000 0080 4aa4 09bf 0000 00c0 2ee6 ef3e
00000160: 0000 0040 d561 0e3f 0000 00e0 5b10 133f
00000170: 0000 0040 2b88 103f 0000 0040 2cfc 083f
00000180: 0000 00a0 9e5d f3be 0000 00c0 d80b 03bf
00000190: 0000 0080 c2d9 c43e 0000 00e0 ef43 e1be
000001a0: 0000 0060 0dd7 01bf 0000 00a0 7d3b 0cbf
000001b0: 0000 0020 b84d 0abf 0000 0080 0b41 fcbe
000001c0: 0000 0080 1b05 d23e 0000 0040 cd45 0a3f
000001d0: 0000 0080 05fa 133f 0000 0060 0d49 ff3e
000001e0: 0000 0020 1dd5 f0be 0000 00a0 65f5 f1be
000001f0: 0000 0080 dd33 02bf 0000 0060 30b2 c53e
00000200: 0000 0040 bc1e f53e 0000 0040 9a8e ff3e
00000210: 0000 0080 03ab fdbe 0000 0000 6ee4 fbbe
00000220: 0000 0040 3d8f 06bf 0000 0000 d707 f23e
00000230: 0000 0000 ba69 0d3f 0000 0020 a6b5 dfbe
00000240: 0000 0080 59a8 b3be 0000 00a0 e56e 0abf
00000250: 0000 0080 25a7 febe 0000 0060 2769 fc3e
00000260: 0000 0000 4813 cfbe 0000 0000 9e61 04bf
00000270: 0000 00c0 98e0 f6be 0000 0020 6664 c9be
00000280: 0000 0080 45f6 083f 0000 0060 b235 0b3f
00000290: 0000 0060 8be7 f83e 0000 00e0 76b7 06bf
000002a0: 0000 00e0 5915 ffbe 0000 00e0 286c d7be
000002b0: 0000 00c0 bda9 dfbe 0000 0080 6635 02bf
000002c0: 0000 0040 6df9 f43e 0000 0060 e76a f73e
000002d0: 0000 0000 1733 003f 0000 00a0 453d cfbe
000002e0: 0000 0080 5a42 14bf 0000 00e0 a15f 043f
000002f0: 0000 0040 9ab1 0e3f 0000 00c0 3e13 13bf
00000300: 0000 00e0 62c1 03bf 0000 00c0 82d2 133f
00000310: 0000 0080 3251 1c3f 0000 00e0 6032 0cbf
00000320: 0000 0040 b986 09bf 0000 0000 4f68 c3be
00000330: 0000 0040 0472 083f 0000 0080 7230 f83e
00000340: 0000 00e0 ac6c 07bf 0000 0000 777f 08bf
00000350: 0000 0080 e063 f2be 0000 00c0 5faf 083f
00000360: 0000 00c0 db13 e93e 0000 0060 9d9e 10bf
00000370: 0000 0040 117b e23e 0000 0000 4c5c 043f
00000380: 0000 0000 8a6c d3be 0000 00c0 79bf 12bf
00000390: 0000 0000 f447 8e3e 0000 0020 6be8 1f3f
000003a0: 0000 00a0 3411 0e3f 0000 0020 bdde 15bf
000003b0: 0000 0000 60bd 12bf 0000 0080 0393 0e3f
000003c0: 0000 00e0 81b1 f83e 0000 0080 30da 083f
000003d0: 0000 00e0 a985 ed3e 0000 0080 afeb fbbe
000003e0: 0000 00c0 97ad e33e 0000 0060 6393 023f
000003f0: 0000 0040 f116 f9be 0000 00c0 f4d6 13bf
00000400: 0000 0040 50b0 063f 0000 00a0 884d 203f
00000410: 0000 00c0 ea16 1dbf 0000 00e0 505f f4be
00000420: 0000 0080 4179 163f 0000 0000 57e1 ecbe
00000430: 0000 0020 5c3b e3be 0000 0080 ecd7 0fbf
00000440: 0000 0020 09f9 f03e 0000 00a0 acd3 f9be
00000450: 0000 0060 5be7 f33e 0000 00c0 4425 f53e
00000460: 0000 0020 1a19 f13e 0000 0040 9216 133f
00000470: 0000 0060 3e64 11bf 0000 0020 25c6 22bf
00000480: 0000 0000 ef11 f6be 0000 0040 a6f2 263f
00000490: 0000 00c0 dd5e 0fbf 0000 0060 c38b 15bf
000004a0: 0000 00c0 bf28 fd3e 0000 0040 8371 043f
000004b0: 0000 0020 2a40 23bf 0000 0000 963f dfbe
000004c0: 0000 00a0 ff5f 2b3f 0000 0040 1c63 ff3e
000004d0: 0000 0040 9ba3 14bf 0000 0040 cc91 10bf
000004e0: 0000 0040 2be2 1e3f 0000 0040 79f9 f5be
000004f0: 0000 00c0 1287 dcbe 0000 00e0 2668 fe3e
00000500: 0000 0080 c5a7 003f 0000 0040 2da8 05bf
00000510: 0000 0000 d014 14bf 0000 0000 b07a 72be
00000520: 0000 0020 b19b 153f 0000 0000 8b14 febe
00000530: 0000 00c0 f23e 1ebf 0000 0000 9a78 0e3f
00000540: 0000 0040 22d8 e53e 0000 0040 edd7 0abf
00000550: 0000 0080 3eca fe3e 0000 0000 992e fe3e
00000560: 0000 0080 d4b5 e63e 0000 00c0 ad8e ed3e
00000570: 0000 00a0 6bd3 f1be 0000 0000 2e35 eb3e
00000580: 0000 0080 b9dd 133f 0000 0040 00ed 10bf
00000590: 0000 0040 c744 28bf 0000 00c0 dc40 233f
000005a0: 0000 0080 74a7 f23e 0000 0000 51da 20bf
000005b0: 0000 00c0 88ea 213f 0000 0080 c8f2 033f
000005c0: 0000 0000 c626 24bf 0000 0080 4b97 f63e
000005d0: 0000 0000 a3a6 173f 0000 00c0 12dd fcbe
000005e0: 0000 0000 4223 00bf 0000 0080 87c3 1e3f
000005f0: 0000 0000 8f61 1cbf 0000 0060 a9bb 1bbf
00000600: 0000 0000 731b 243f 0000 0040 47a4 ee3e
00000610: 0000 00a0 770a 05bf 0000 00e0 fb16 f53e
00000620: 0000 0040 bcc8 e6be 0000 0040 13d8 10bf
00000630: 0000 00c0 0d5c 283f 0000 00a0 a09b 14bf
00000640: 0000 0020 2a7a ffbe 0000 0060 7781 033f
00000650: 0000 0020 d0e9 21bf 0000 00e0 fe2e 163f
00000660: 0000 00c0 e8bb 1d3f 0000 0020 b658 26bf
00000670: 0000 0080 979c 0d3f 0000 0000 0d1a 1e3f
00000680: 0000 0060 1f6d 2dbf 0000 0080 540e 163f
00000690: 0000 0040 0768 213f 0000 0020 f144 21bf
000006a0: 0000 0000 a075 0fbf 0000 0080 3398 2e3f
000006b0: 0000 0020 2c51 2cbf 0000 0000 6fb4 993e
000006c0: 0000 0000 c5c9 2f3f 0000 00c0 bcb3 2ebf
000006d0: 0000 0080 3bef 093f 0000 00a0 3e97 243f
000006e0: 0000 0080 a051 30bf 0000 0040 a258 233f
000006f0: 0000 0000 80c9 923e 0000 0020 5ece 23bf
00000700: 0000 0040 23d0 213f 0000 00c0 8214 d83e
00000710: 0000 0080 8611 12bf 0000 00c0 ca04 eb3e
00000720: 0000 0000 0068 b3be 0000 00c0 9e25 15bf
00000730: 0000 00a0 a31d 293f 0000 00c0 1f84 d43e
00000740: 0000 00c0 d356 22bf 0000 00e0 cde0 1c3f
00000750: 0000 0020 885e 123f 0000 00a0 9624 25bf
00000760: 0000 00c0 6f37 273f 0000 0000 2d8a 28bf
00000770: 0000 0000 3da2 153f 0000 0040 f167 153f
00000780: 0000 0040 6b75 36bf 0000 0060 61a6 333f
00000790: 0000 0040 7a8f 2fbf 0000 0000 8471 1d3f
000007a0: 0000 00c0 0aab 353f 0000 0000 4e86 3fbf
000007b0: 0000 0080 7e5b 2c3f 0000 00e0 7607 2b3f
000007c0: 0000 0060 1d83 3dbf 0000 00e0 b228 383f
000007d0: 0000 00c0 dfd6 183f 0000 00a0 2f30 35bf
000007e0: 0000 0040 d771 213f 0000 0080 b7e7 183f
000007f0: 0000 0040 6915 35bf 0000 00e0 7a2e 343f
