histograms/histogram_linear3b.weight.mean_Hyper__HopperBulletEnv-v0_seed4_scale1.npy (npy, 518072 bytes, 1 tensors)

array f8 [64743]
0	0x0000000000000000	0.0
1	0x3f52e8b5a0000000	0.001154115074314177
2	0x3f53e2cc00000000	0.0012137405574321747
3	0x3f5d8e8160000000	0.0018039954593405128
4	0x3f6d852f00000000	0.0036035459488630295
5	0x3f68f8fc00000000	0.003048412501811981
6	0x3f70f4c660000000	0.004139685537666082
7	0x3f722c45e0000000	0.00443675322458148
8	0x3f6a6c21e0000000	0.0032253896351903677
9	0x3f6ac28760000000	0.0032665866892784834
10	0x3f745dbd20000000	0.004972208756953478
11	0x3f74eea040000000	0.005110383965075016
12	0x3f743f2c40000000	0.004943058826029301
13	0x3f74026ac0000000	0.004885117523372173
14	0x3f739f47c0000000	0.004790573380887508
15	0x3f751157e0000000	0.005143492948263884
16	0x3f6e674c00000000	0.0037113651633262634
17	0x3f6d243f00000000	0.003557322546839714
18	0x3f67749500000000	0.002863207831978798
19	0x3f639de340000000	0.0023946226574480534
20	0x3f62e2c6c0000000	0.002305401023477316
21	0x3f627dd260000000	0.00225726212374866
22	0x3f685b1540000000	0.0029731192626059055
23	0x3f659ebd00000000	0.0026391688734292984
24	0x3f62d0d640000000	0.0022968468256294727
25	0x3f65d8efe0000000	0.0026669201906770468
26	0x3f635a0080000000	0.002362252213060856
27	0x3f63468c80000000	0.0023529762402176857
28	0x3f603caa00000000	0.0019820518791675568
29	0x3f5a961d00000000	0.0016227038577198982
30	0x3f54a22ac0000000	0.001259366748854518
31	0x3f627d9e00000000	0.002257164567708969
32	0x3f378bbb60000000	0.00035928082070313394
33	0xbf1a3343c0000000	-9.994603169616312e-05
34	0xbf2ab71e60000000	-0.00020382161892484874
35	0xbf2878be80000000	-0.00018670392455533147
36	0xbf45593c00000000	-0.000651506707072258
37	0xbf48a3c040000000	-0.0007519425125792623
38	0xbf4e892460000000	-0.0009318759548477829
39	0xbf4a6c9700000000	-0.0008064019493758678
40	0xbf5003c820000000	-0.0009774641366675496
41	0xbf51109ee0000000	-0.001041560317389667
42	0xbf4b9b1ae0000000	-0.0008424645639024675
43	0xbf4e03c060000000	-0.0009159745532087982
44	0xbf46472fe0000000	-0.0006798728718422353
45	0xbf3ede1c40000000	-0.00047100248048081994
46	0xbf52712e60000000	-0.0011256173020228744
47	0xbf46d90ac0000000	-0.0006972601404413581
48	0xbf523014c0000000	-0.0011100962292402983
49	0xbf48c3e3c0000000	-0.0007557737408205867
50	0xbf207dbd40000000	-0.00012581763439811766
51	0xbf48675840000000	-0.0007447415264323354
52	0xbf44954980000000	-0.0006281479727476835
53	0xbf328a5400000000	-0.00028290320187807083
54	0xbf3b129960000000	-0.00041309589869342744
55	0x3f152db600000000	8.07897886261344e-05
56	0x3f418a8fa0000000	0.0005353165906853974
57	0x3f413b35c0000000	0.0005258572055026889
58	0x3f41929540000000	0.0005362728843465447
59	0x3f400c6d40000000	0.0004897626349702477
60	0x3f38995ec0000000	0.00037535250885412097
61	0x3f250ba160000000	0.00016056389722507447
62	0x3f33594220000000	0.0002952372014988214
63	0x3f47499860000000	0.0007106775301508605
64	0x3f61f8a400000000	0.002193756401538849
65	0x3f41eddea0000000	0.000547155097592622
66	0x3f68ff4c00000000	0.0030514225363731384
67	0x3f55efd400000000	0.001338917762041092
68	0x3f5a035ac0000000	0.001587713835760951
69	0x3f5fc22360000000	0.0019383759936317801
70	0x3f57387bc0000000	0.0014172752853482962
71	0x3f5230c740000000	0.0011102624703198671
72	0x3f45174de0000000	0.0006436472176574171
73	0x3f0eb7ab60000000	5.858890290255658e-05
74	0x3f45bf43e0000000	0.0006636697216890752
75	0x3f2c42b560000000	0.00021561111498158425
76	0x3f463fdf00000000	0.0006790007464587688
77	0xbf239642c0000000	-0.00014943661517463624
78	0x3f2009a540000000	0.00012235777103342116
79	0xbf2defecc0000000	-0.0002284027577843517
80	0x3f27d6d0c0000000	0.00018187807290814817
81	0xbef51bc700000000	-2.0130639313720167e-05
82	0xbf3c011700000000	-0.00042731105349957943
83	0xbf40f48ce0000000	-0.0005174339166842401
84	0x3f07aba7e0000000	4.51479536422994e-05
85	0x3f278d6980000000	0.00017969048349186778
86	0xbf4c650660000000	-0.0008665352943353355
87	0xbf409fedc0000000	-0.0005073462380096316
88	0xbf54201680000000	-0.0012283534742891788
89	0xbf4d252ac0000000	-0.0008894404163584113
90	0xbf4aa870c0000000	-0.0008135366952046752
91	0xbf2d74b500000000	-0.00022473058197647333
92	0x3f439a37c0000000	0.0005982181755825877
93	0x3f3a73ac00000000	0.0004036230966448784
94	0x3f47cb0f60000000	0.000726110942196101
95	0x3f5163db40000000	0.0010614052880555391
96	0xbf348e5120000000	-0.0003136585291940719
97	0xbf1a5bfd40000000	-0.00010055287566501647
98	0xbee1d14300000000	-8.496012014802545e-06
99	0xbf1a83e3c0000000	-0.00010114743781741709
100	0xbf41e24100000000	-0.0005457703955471516
101	0xbf35a3d300000000	-0.00033019925467669964
102	0xbf40b3c860000000	-0.0005097130197100341
103	0xbf2852d100000000	-0.00018557358998805285
104	0xbf41170440000000	-0.000521542620845139
105	0xbf3e4ca300000000	-0.00046233157627284527
106	0xbf45653780000000	-0.0006529351230710745
107	0x3f34cf4b60000000	0.00031753149232827127
108	0xbf40851580000000	-0.000504146097227931
109	0xbf22d155c0000000	-0.00014356776955537498
110	0xbf014ea780000000	-3.301094693597406e-05
111	0x3f5065c960000000	0.001000830321572721
112	0x3f4343a0c0000000	0.0005878958618268371
113	0xbf1b8929c0000000	-0.00010504071542527527
114	0x3f55412ae0000000	0.0012972754193469882
115	0x3f40714020000000	0.0005017817602492869
116	0x3f341275e0000000	0.00030627610976807773
117	0x3f50d69600000000	0.0010277237743139267
118	0x3f2c337f80000000	0.0002151578082703054
119	0xbf0b520460000000	-5.21094880241435e-05
120	0x3f52471740000000	0.0011155821848660707
121	0x3f0e4eac60000000	5.780662104371004e-05
122	0xbf319454c0000000	-0.0002682406338863075
123	0xbf4d3b41e0000000	-0.0008920737891457975
124	0x3f4b72c500000000	0.0008376562036573887
125	0xbf354b0c40000000	-0.00032490777084603906
126	0xbf3933f8c0000000	-0.0003845674800686538
127	0xbf27cefbe0000000	-0.0001816446747398004
128	0x3f4de21a00000000	0.0009119631722569466
129	0x3f447c5500000000	0.000625173095613718
130	0xbf381e79c0000000	-0.0003680274239741266
131	0xbf19191140000000	-9.574096475262195e-05
132	0x3f29ba6660000000	0.00019629001326393336
133	0xbf50a76600000000	-0.0010164733976125717
134	0xbf487c9360000000	-0.0007472724537365139
135	0x3f4896c260000000	0.0007503937813453376
136	0xbf33d3f880000000	-0.0003025514306500554
137	0xbf22e64ae0000000	-0.00014419235230889171
138	0xbf3973b600000000	-0.0003883666358888149
139	0xbf39e4c900000000	-0.0003951063845306635
140	0x3f4ccec260000000	0.0008791398140601814
141	0xbf34644e00000000	-0.00031115440651774406
142	0x3f4752b6c0000000	0.0007117645582184196
143	0x3f2be1a100000000	0.00021271791774779558
144	0x3f36b795c0000000	0.00034663587575778365
145	0x3f32def480000000	0.0002879473613575101
146	0x3f49d704c0000000	0.0007885716622695327
147	0x3f3dac6a60000000	0.00045278164907358587
148	0x3f32ff54c0000000	0.0002898771199397743
149	0x3f562d6ac0000000	0.0013536016922444105
150	0x3f59fd8400000000	0.0015863217413425446
151	0x3f45dd94e0000000	0.0006672837189398706
152	0xbf23fa6640000000	-0.00015242098015733063
153	0xbf3c544dc0000000	-0.0004322709864936769
154	0x3f48822c60000000	0.0007479397463612258
155	0xbf2e793840000000	-0.0002324944653082639
156	0x3f35acb780000000	0.00033072929363697767
157	0xbf508ab180000000	-0.0010096295736730099
158	0x3f1fedf000000000	0.00012180116027593613
159	0xbf42abbd00000000	-0.0005697892047464848
160	0xbf53c597c0000000	-0.0012067777570337057
161	0xbf40476b80000000	-0.000496795168146491
162	0xbf5e06c3c0000000	-0.0018326675053685904
163	0xbf4a474fc0000000	-0.0008019580272957683
164	0xbf59365b00000000	-0.0015388382598757744
165	0xbf238986e0000000	-0.00014905711577739567
166	0xbf5366f7c0000000	-0.0011842173989862204
167	0x3f4e1c4800000000	0.000918898731470108
168	0x3f44bb7300000000	0.0006326972506940365
169	0xbf3325f500000000	-0.00029217940755188465
170	0x3f41bbf360000000	0.0005412042955867946
171	0x3f60fca220000000	0.0020735899452120066
172	0x3f5841b260000000	0.0014805070823058486
173	0xbefd3eab60000000	-2.789001700875815e-05
174	0x3f63e13ec0000000	0.0024267411790788174
175	0x3f5d328660000000	0.001782065606676042
176	0x3f470ea340000000	0.0007036492461338639
177	0x3f45951cc0000000	0.0006586447125300765
178	0x3f56305bc0000000	0.001354302978143096
179	0xbef74ad9c0000000	-2.221334943897091e-05
180	0x3f563cf7e0000000	0.0013573094038292766
181	0x3f4ba88a60000000	0.0008440662059001625
182	0xbf4f3b5360000000	-0.0009531170944683254
183	0xbf50e79a80000000	-0.001031781081110239
184	0xbf37eff8e0000000	-0.0003652556042652577
185	0x3f435553e0000000	0.0005900058313272893
186	0xbf3f422060000000	-0.0004769639053847641
187	0x3f379ef8c0000000	0.0003604275989346206
188	0xbf38b87240000000	-0.00037720479303970933
189	0x3f51731fc0000000	0.0010650453623384237
190	0x3f33ea0f60000000	0.0003038680588360876
191	0x3f52c494c0000000	0.0011455013882368803
192	0xbf34b7bb40000000	-0.00031612702878192067
193	0x3f5188a840000000	0.0010701792780309916
194	0x3f62fd4c60000000	0.002318047685548663
195	0xbf4b5757c0000000	-0.0008343866793438792
196	0x3f1b5eb380000000	0.00010440798359923065
197	0xbf3f64a340000000	-0.00047902093501761556
198	0xbf455b7260000000	-0.0006517704459838569
199	0xbf518d51c0000000	-0.0010712908115237951
200	0xbf518e0820000000	-0.0010714606614783406
201	0xbf1a9866e0000000	-0.00010145309352083132
202	0xbf5f38ed60000000	-0.0019056623568758368
203	0xbf27c3e9c0000000	-0.00018131473916582763
204	0xbf4b855780000000	-0.0008398701902478933
205	0x3f385be080000000	0.00037168723065406084
206	0x3f4d6c79e0000000	0.000897941121365875
207	0xbf23b1c940000000	-0.00015025693573988974
208	0xbf160d1180000000	-8.4118073573336e-05
209	0x3f05fd01c0000000	4.193936911178753e-05
210	0x3f6cfbdf60000000	0.003538070945069194
211	0x3f61f4d4c0000000	0.0021919398568570614
212	0x3f4dcaf4c0000000	0.0009092040127143264
213	0x3f458038c0000000	0.0006561543559655547
214	0xbf46946160000000	-0.0006890750373713672
215	0xbf205142c0000000	-0.00012449207133613527
216	0x3f434544c0000000	0.0005880914395675063
217	0x3f1955ef80000000	9.664797107689083e-05
218	0x3f403a1d80000000	0.0004952091258019209
219	0x3f3f7d4480000000	0.0004804889904335141
220	0xbef08b0100000000	-1.5776618965901434e-05
221	0xbf39b5de60000000	-0.00039230994298122823
222	0xbf38e17080000000	-0.00037964817602187395
223	0xbf3e26dec0000000	-0.00046008051140233874
224	0x3f40d02740000000	0.0005130950594320893
225	0x3f46bb2240000000	0.0006936948047950864
226	0x3f3058b380000000	0.00024942762684077024
227	0xbf430fe740000000	-0.0005817298078909516
228	0xbf58044260000000	-0.0014658592408522964
229	0x3f2b2f4160000000	0.00020740197214763612
230	0xbf402a9180000000	-0.0004933557938784361
231	0xbf53738840000000	-0.001187212998047471
232	0xbf2cdf69e0000000	-0.00022028129023965448
233	0x3ec2488560000000	2.1795374323119177e-06
234	0xbf42e31800000000	-0.0005763880908489227
235	0x3f1b4ad6c0000000	0.0001041120121954009
236	0x3f11894940000000	6.689557631034404e-05
237	0x3f4e1cb400000000	0.0009189490228891373
238	0x3f35a72060000000	0.00033039608388207853
239	0x3f550cf7c0000000	0.0012848300393670797
240	0xbf45b34060000000	-0.0006622375803999603
241	0x3f2b867c00000000	0.0002100015990436077
242	0x3f451df880000000	0.0006444419268518686
243	0xbf40090a20000000	-0.000489358848426491
244	0x3f357466c0000000	0.00032737263245508075
245	0x3f38446c40000000	0.0003702892572619021
246	0x3f556944c0000000	0.0013068362604826689
247	0x3f543842a0000000	0.0012341166147962213
248	0x3f53a18460000000	0.0011981766438111663
249	0xbf38969de0000000	-0.00037518839235417545
250	0xbf4cf75a00000000	-0.0008839787915349007
251	0xbf560d3900000000	-0.0013459259644150734
252	0x3f51386e60000000	0.0010510518914088607
253	0xbf50e9e600000000	-0.0010323282331228256
254	0xbf3d176960000000	-0.000443900324171409
255	0xbf56203e00000000	-0.0013504605740308762
