histograms/histogram_linear3b.weight.mean_Hyper__Walker2DBulletEnv-v0_seed4_scale1.npy (npy, 62072 bytes, 1 tensors)

array f8 [7743]
00000000: 0000 0000 0000 0000 0000 0000 1ff5 363f
00000010: 0000 00c0 19e9 403f 0000 00e0 56b7 503f
00000020: 0000 0060 eac7 513f 0000 00c0 8674 453f
00000030: 0000 00c0 5b4b 433f 0000 0080 a391 453f
00000040: 0000 0000 6980 453f 0000 00c0 5d75 493f
00000050: 0000 0080 fbe8 4a3f 0000 0060 08f8 523f
00000060: 0000 0020 19c3 523f 0000 0000 b6e1 4e3f
00000070: 0000 00c0 e57a 473f 0000 00c0 4d27 493f
00000080: 0000 0000 8342 493f 0000 0060 9cfb 453f
00000090: 0000 00c0 3bf6 483f 0000 00c0 3c88 493f
000000a0: 0000 00c0 8919 4a3f 0000 0080 1144 4d3f
000000b0: 0000 00c0 9025 4b3f 0000 0080 38b8 433f
000000c0: 0000 0060 3f67 4e3f 0000 0040 9baa 483f
000000d0: 0000 0020 c411 503f 0000 0060 78dc 4e3f
000000e0: 0000 00c0 9dd6 4d3f 0000 00c0 5944 493f
000000f0: 0000 0000 1090 4a3f 0000 0040 a941 453f
00000100: 0000 0000 f68d 443f 0000 00c0 51ec 443f
00000110: 0000 0060 bc42 3d3f 0000 00c0 8f02 2a3f
00000120: 0000 00e0 4503 103f 0000 0060 f1f7 16bf
00000130: 0000 00e0 b074 183f 0000 0020 d977 32bf
00000140: 0000 0000 8bde 063f 0000 00e0 5130 213f
00000150: 0000 0080 5282 07bf 0000 0080 60ec 14bf
00000160: 0000 0080 3bea dfbe 0000 0000 afbf 02bf
00000170: 0000 0060 b38f 223f 0000 0040 1b52 30bf
00000180: 0000 0000 0541 f53e 0000 0000 f79b f23e
00000190: 0000 0060 2065 073f 0000 0000 b461 31bf
000001a0: 0000 00c0 34ce 13bf 0000 0000 eb44 12bf
000001b0: 0000 0020 884f f4be 0000 0040 7116 d1be
000001c0: 0000 0060 fa07 22bf 0000 00c0 9989 063f
000001d0: 0000 00c0 3bec 02bf 0000 00c0 e11d 19bf
000001e0: 0000 0000 2cfb 1d3f 0000 00c0 67d9 1e3f
000001f0: 0000 0080 20e8 263f 0000 0000 589e 2b3f
00000200: 0000 00e0 4e58 333f 0000 0000 b1eb 373f
00000210: 0000 0040 d151 343f 0000 0060 c9e5 1e3f
00000220: 0000 0060 87bd 213f 0000 0000 0a4d 21bf
00000230: 0000 00c0 2852 333f 0000 0000 9083 3d3f
00000240: 0000 0000 b36a 363f 0000 0000 49cd 2a3f
00000250: 0000 00c0 b1d6 223f 0000 00c0 4af0 2a3f
00000260: 0000 0060 59a6 143f 0000 0020 ccb3 24bf
00000270: 0000 0060 3dbd 173f 0000 0000 4b0a 2a3f
00000280: 0000 0060 bdae ea3e 0000 0020 e976 243f
00000290: 0000 0000 e73d 153f 0000 0000 bf50 213f
000002a0: 0000 0040 0631 1f3f 0000 0000 d9c6 243f
000002b0: 0000 00c0 005e 013f 0000 0040 0dab 123f
000002c0: 0000 0040 2533 23bf 0000 00c0 06f4 073f
000002d0: 0000 0000 6c64 28bf 0000 0060 0541 fb3e
000002e0: 0000 0040 3202 24bf 0000 00c0 07a4 1ebf
000002f0: 0000 0040 8686 11bf 0000 00c0 28af 15bf
00000300: 0000 0040 d209 203f 0000 0040 455f 203f
00000310: 0000 0000 5624 353f 0000 0060 21a9 2b3f
00000320: 0000 0000 327d 103f 0000 0040 5acb 1d3f
00000330: 0000 00c0 fc98 2e3f 0000 00c0 d57e 313f
00000340: 0000 00c0 f648 243f 0000 0000 6752 36bf
00000350: 0000 00e0 818a 093f 0000 0000 116c 383f
00000360: 0000 0040 b125 283f 0000 00e0 6fe6 243f
00000370: 0000 00c0 3c78 3a3f 0000 00e0 cb6e 163f
00000380: 0000 0000 40de 3a3f 0000 00e0 2ab7 323f
00000390: 0000 00a0 63b0 303f 0000 0040 0c2f 2e3f
000003a0: 0000 0040 f94e 333f 0000 0080 5663 033f
000003b0: 0000 0000 cc56 263f 0000 0000 c131 253f
000003c0: 0000 00c0 c1c9 3f3f 0000 00e0 c4e0 2e3f
000003d0: 0000 0060 b3ba 2f3f 0000 0000 f7cb b53e
000003e0: 0000 0000 e75f f5be 0000 0020 d68a 11bf
000003f0: 0000 00c0 452c 14bf 0000 0060 11d0 35bf
00000400: 0000 00e0 98cc 0f3f 0000 0080 b087 1ebf
00000410: 0000 00e0 d9be 26bf 0000 0000 121f 2ebf
00000420: 0000 0060 8762 35bf 0000 0080 204e 25bf
00000430: 0000 0000 58cf 27bf 0000 00c0 bc08 29bf
00000440: 0000 0060 6034 26bf 0000 0060 0f4b 0fbf
00000450: 0000 00a0 c429 20bf 0000 0060 9dec 1f3f
00000460: 0000 0040 4582 02bf 0000 0040 c4df 113f
00000470: 0000 00c0 12b3 0a3f 0000 0040 0b92 293f
00000480: 0000 00e0 38d1 273f 0000 00e0 93d5 353f
00000490: 0000 00e0 6c12 3a3f 0000 0000 ed27 3a3f
000004a0: 0000 0080 9813 283f 0000 0060 43b4 463f
000004b0: 0000 0040 0bc0 483f 0000 00c0 e6ab 193f
000004c0: 0000 0080 6ffb fb3e 0000 0040 fe94 213f
000004d0: 0000 0060 49d2 04bf 0000 0040 5a86 303f
000004e0: 0000 00e0 0f66 2cbf 0000 0060 1660 38bf
000004f0: 0000 0060 9861 27bf 0000 0000 c2f7 36bf
00000500: 0000 0040 0390 15bf 0000 0000 9e70 27bf
00000510: 0000 00c0 84dd 3fbf 0000 00c0 303b 20bf
00000520: 0000 0040 76da 32bf 0000 0000 8362 3bbf
00000530: 0000 0000 ead5 f0be 0000 0080 0550 32bf
00000540: 0000 00c0 4da9 0cbf 0000 00c0 cef7 383f
00000550: 0000 00c0 f709 3e3f 0000 0000 0feb 403f
00000560: 0000 0060 3c36 303f 0000 0000 be8b 153f
00000570: 0000 0060 a957 1dbf 0000 0040 fc81 0c3f
00000580: 0000 0040 fd60 383f 0000 0060 39c2 d3be
00000590: 0000 00c0 0c16 27bf 0000 0080 533c ff3e
000005a0: 0000 00e0 d67e 3bbf 0000 00c0 7bc0 3bbf
000005b0: 0000 0000 9d8e 0ebf 0000 0060 7075 383f
000005c0: 0000 0060 5d12 efbe 0000 00c0 609a 29bf
000005d0: 0000 0000 ab5b 223f 0000 00c0 b3fb 2e3f
000005e0: 0000 00e0 d16c 253f 0000 0080 d445 363f
000005f0: 0000 0040 9176 223f 0000 00e0 225c 1b3f
00000600: 0000 0080 7335 20bf 0000 0060 f841 2f3f
00000610: 0000 0040 043d 213f 0000 00c0 5109 18bf
00000620: 0000 0060 726c 0dbf 0000 00c0 2fe5 36bf
00000630: 0000 0040 1476 e1be 0000 00c0 72e9 2d3f
00000640: 0000 00e0 591e 383f 0000 00c0 9bf2 fe3e
00000650: 0000 0040 6f2b 32bf 0000 0000 f71f 29bf
00000660: 0000 0080 6cce 03bf 0000 00e0 10da 2cbf
00000670: 0000 00e0 7729 11bf 0000 0000 988a 073f
00000680: 0000 0080 c5a9 e8be 0000 0080 ac33 233f
00000690: 0000 00c0 df12 27bf 0000 0000 6f2d 2d3f
000006a0: 0000 0060 a182 383f 0000 00e0 fbeb 23bf
000006b0: 0000 00c0 7865 113f 0000 00c0 469b 35bf
000006c0: 0000 00e0 58a2 22bf 0000 0000 4883 11bf
000006d0: 0000 00e0 4e53 d7be 0000 0060 b951 1abf
000006e0: 0000 0080 7914 2b3f 0000 00e0 e095 12bf
000006f0: 0000 0060 744e 1d3f 0000 0060 6ad4 f03e
00000700: 0000 00a0 c05e 30bf 0000 00c0 1512 343f
00000710: 0000 0040 e665 183f 0000 0060 1414 1a3f
00000720: 0000 0080 3797 213f 0000 00c0 7bea fbbe
00000730: 0000 0000 c717 223f 0000 0060 4820 3f3f
00000740: 0000 0060 2621 f7be 0000 0080 0bb3 12bf
00000750: 0000 0000 aa3f 1abf 0000 0000 2c7f 39bf
00000760: 0000 0040 8562 3abf 0000 0060 2336 36bf
00000770: 0000 00c0 3c2b 3dbf 0000 0040 b974 42bf
00000780: 0000 0000 f5fa 2ebf 0000 0040 53d8 223f
00000790: 0000 0080 f4e5 32bf 0000 00e0 f5cf 27bf
000007a0: 0000 0000 45f6 393f 0000 00c0 71ac 183f
000007b0: 0000 0000 8bb7 16bf 0000 00c0 8ecf bd3e
000007c0: 0000 0000 8351 0ebf 0000 00c0 0d35 3bbf
000007d0: 0000 0080 25c1 e03e 0000 00c0 1275 373f
000007e0: 0000 0000 7c5f c5be 0000 0080 ae4a 2b3f
000007f0: 0000 00c0 448b 36bf 0000 0080 3651 26bf
0.0 0.000350303715094924 0.0005160690052434802 0.0010202740086242557 0.0010852612322196364 0.0006547601660713553 0.0005888174055144191 0.0006582306232303381
0.0006561768241226673 0.0007769305957481265 0.0008212307002395391 0.00115776841994375 0.001145147834904492 0.0009424341842532158 0.0007165548158809543 0.0007676248205825686
0.0007708682678639889 0.0006708634900860488 0.0007617751834914088 0.0007791802054271102 0.0007965014083310962 0.000893124146386981 0.0008284527575597167 0.0006017948035150766
0.0009278354118578136 0.0007527597481384873 0.000980798271484673 0.0009418094414286315 0.00091059401165694 0.000771087477914989 0.0008106306195259094 0.0006486965576186776
0.0006272746250033379 0.0006385230226442218 0.0004464826488401741 0.000198440597159788 6.108392699388787e-05 -8.761797653278336e-05 9.32915645535104e-05 -0.00028180170920677483
4.3619744246825576e-05 0.00013113975001033396 -4.483999509830028e-05 -7.98162363935262e-05 -7.6091218943474814e-06 -3.576042945496738e-05 0.00014161171566229314 -0.0002490345505066216
2.0269377273507416e-05 1.7747152014635503e-05 4.4622469431487843e-05 -0.0002652229741215706 -7.55519577069208e-05 -6.96915085427463e-05 -1.9369765141163953e-05 -4.074016942468006e-06
-0.00013756686530541629 4.298687417758629e-05 -3.609235136536881e-05 -9.58127056946978e-05 0.00011436897329986095 0.00011768050899263471 0.0001747646019794047 0.00021071266382932663
0.0002951805654447526 0.00036500045098364353 0.0003100524772889912 0.00011786500544985756 0.00013534810568671674 -0.0001319956500083208 0.0002948140609078109 0.00045034661889076233
0.00034205312840640545 0.0002044822322204709 0.00014372749137692153 0.00020552551723085344 7.877274038037285e-05 -0.00015794626960996538 9.055792907020077e-05 0.00019867101218551397
1.2723244253720623e-05 0.00015613170398864895 8.103105938062072e-05 0.00013210612814873457 0.00011898613593075424 0.00015851401258260012 3.312530316179618e-05 7.121342059690505e-05
-0.00014648275100626051 4.56871566711925e-05 -0.00018609827384352684 2.5991428628913127e-05 -0.0001526533451396972 -0.0001168851595139131 -6.685442349407822e-05 -8.271871774923056e-05
0.00012236300972290337 0.00012490959488786757 0.0003226003609597683 0.00021103413018863648 6.290071178227663e-05 0.00011365640966687351 0.00023344121291302145 0.00026695936685428023
0.00015476238331757486 -0.0003406049218028784 4.8715675802668557e-05 0.0003726521972566843 0.00018422878929413855 0.0001594554487382993 0.00040389521745964885 8.557433466194198e-05
0.00040997564792633057 0.00028557583573274314 0.00025465423823334277 0.00023028397117741406 0.0002946241875179112 3.6979748983867466e-05 0.0001704334281384945 0.00016170006711035967
0.00048504810547456145 0.00023558047541882843 0.00024207534443121403 1.2991868061362766e-06 -2.0384424715302885e-05 -6.691867747576907e-05 -7.695365638937801e-05 -0.00033283638185821474
6.0652175307041034e-05 -0.00011646284838207066 -0.00017353448492940515 -0.00022980780340731144 -0.0003263073449488729 -0.0001625456498004496 -0.0001816553995013237 -0.0001909952552523464
-0.00016940761997830123 -5.968704863335006e-05 -0.00012331509788054973 0.0001217814497067593 -3.5302866308484226e-05 6.81842357153073e-05 5.092526407679543e-05 0.00019508731202222407
0.00018171138071920723 0.0003331647894810885 0.00039782674866728485 0.0003991082776337862 0.00018368946621194482 0.000692875764798373 0.0007553152972832322 9.792896162252873e-05
2.6685876946430653e-05 0.0001341400493402034 -3.971373007516377e-05 0.0002521486603654921 -0.00021666473185177892 -0.00037193819298408926 -0.00017838463827501982 -0.00035046087577939034
-8.225459896493703e-05 -0.00017883232794702053 -0.0004862259957008064 -0.0001238343247678131 -0.0002876795479096472 -0.00041785906068980694 -1.6055681044235826e-05 -0.00027942785527557135
-5.466717266244814e-05 0.0003809814224950969 0.00045835779746994376 0.0005163024179637432 0.0002473733329679817 8.219096343964338e-05 -0.00011193248064955696 5.4374228056985885e-05
0.00037199194775894284 -4.710838311439147e-06 -0.0001761332096066326 2.9788636311423033e-05 -0.00041954751941375434 -0.00042346020927652717 -5.828301073051989e-05 0.0003732108452823013
-1.4816158909525257e-05 -0.00019533568411134183 0.00014006101991981268 0.00023638314451090991 0.00016346036863978952 0.0003398555563762784 0.0001408626849297434 0.00010436976299388334
-0.00012366328155621886 0.00023847729607950896 0.00013151814346201718 -9.16916033020243e-05 -5.612110180663876e-05 -0.0003493539406917989 -8.326171155204065e-06 0.00022820974118076265
0.0003680200024973601 2.95140162052121e-05 -0.0002772471052594483 -0.0001916874898597598 -3.7777601392008364e-05 -0.0002201219176640734 -6.546777876792476e-05 4.490162245929241e-05
-1.1760315828723833e-05 0.0001464984961785376 -0.0001760385639499873 0.00022260646801441908 0.0003739971143659204 -0.00015199136396404356 6.636189937125891e-05 -0.00032968976302072406
-0.000142167424201034 -6.680609658360481e-05 -5.5612140386074316e-06 -0.0001003999132080935 0.00020660384325310588 -7.089791324688122e-05 0.00011179528519278392 1.6050098565756343e-05
-0.00024978831061162055 0.0003062537289224565 9.307115396950394e-05 9.948133811121807e-05 0.0001342063187621534 -2.6622725272318348e-05 0.00013803772162646055 0.00047494666068814695
-2.2058002286939882e-05 -7.133252802304924e-05 -0.00010013079736381769 -0.0003890497609972954 -0.00040260079549625516 -0.00033892024657689035 -0.00044508202699944377 -0.0005632309475913644
-0.00023636093828827143 0.00014377609477378428 -0.0002883645938709378 -0.00018167377857025713 0.0003961485344916582 9.41223552217707e-05 -8.665834320709109e-05 1.7768604720913572e-06
-5.782776861451566e-05 -0.00041514955228194594 7.989157893462107e-06 0.0003579302574507892 -2.547858457546681e-06 0.00020821933867409825 -0.0003439944121055305 -0.0001702670124359429
