histograms/histogram_linear3a.weight_Hyper__Walker2DBulletEnv-v0_seed1_scale1.npy (npy, 758072 bytes, 1 tensors)

array f8 [94743]
00000000: 0000 0000 0000 0000 0000 0000 c98b 22bf
00000010: 0000 0060 d561 27bf 0000 00c0 263f 44bf
00000020: 0000 00a0 2d52 553f 0000 0080 eea4 543f
00000030: 0000 0060 0ced 483f 0000 00c0 9ed3 423f
00000040: 0000 0080 2242 433f 0000 00c0 a231 373f
00000050: 0000 00c0 2a7e 6cbe 0000 00e0 451e 253f
00000060: 0000 0040 92bf 4e3f 0000 00e0 ced9 4e3f
00000070: 0000 00c0 ef50 523f 0000 0000 dda7 523f
00000080: 0000 0080 eefa 403f 0000 00e0 380a 163f
00000090: 0000 0000 064a 383f 0000 0000 995f 353f
000000a0: 0000 0080 7e82 333f 0000 0080 7a3b 20bf
000000b0: 0000 0040 9c47 3bbf 0000 0060 8d90 38bf
000000c0: 0000 0000 431e 40bf 0000 0000 bec3 31bf
000000d0: 0000 0040 b087 34bf 0000 0080 bb6e 2dbf
000000e0: 0000 00c0 b31c 16bf 0000 0060 5b43 3c3f
000000f0: 0000 00c0 a53f 433f 0000 0000 57c2 3f3f
00000100: 0000 0040 9c28 1bbf 0000 0040 4d44 343f
00000110: 0000 0060 23f3 1d3f 0000 0040 e904 213f
00000120: 0000 0060 2881 273f 0000 00a0 95a0 22bf
00000130: 0000 0080 e3f5 2a3f 0000 0080 3f5c 29bf
00000140: 0000 00e0 936c 05bf 0000 0060 d2a3 34bf
00000150: 0000 0040 72e0 43bf 0000 0020 8539 33bf
00000160: 0000 0040 273e 40bf 0000 0060 6bb2 20bf
00000170: 0000 0000 ddc0 393f 0000 0000 3868 3b3f
00000180: 0000 0000 7389 47bf 0000 00c0 a697 45bf
00000190: 0000 00c0 7dcb 3cbf 0000 0060 f78e 20bf
000001a0: 0000 00e0 5bb3 38bf 0000 0000 62f5 103f
000001b0: 0000 00c0 9903 273f 0000 00c0 523b 313f
000001c0: 0000 0000 a610 423f 0000 0060 cda3 3f3f
000001d0: 0000 00e0 113f 103f 0000 0000 7dab f9be
000001e0: 0000 0080 7b53 2fbf 0000 0040 a73c 39bf
000001f0: 0000 0060 03f7 e93e 0000 00e0 ffe6 efbe
00000200: 0000 0060 8bed 32bf 0000 00c0 8607 343f
00000210: 0000 0040 678d 3f3f 0000 0000 6ded 2d3f
00000220: 0000 0000 0602 283f 0000 0060 b90f 333f
00000230: 0000 0000 6fd6 3f3f 0000 0060 356e 28bf
00000240: 0000 00c0 4b43 27bf 0000 0060 5d62 af3e
00000250: 0000 0040 8136 27bf 0000 0060 60e6 2dbf
00000260: 0000 0060 4e9b 47bf 0000 0060 684c 283f
00000270: 0000 0000 2153 1a3f 0000 0080 d701 393f
00000280: 0000 0000 fc62 153f 0000 0060 7252 ff3e
00000290: 0000 0080 bca8 2dbf 0000 0080 8d83 393f
000002a0: 0000 00e0 8d9b 443f 0000 0080 5e22 3b3f
000002b0: 0000 00e0 ff11 313f 0000 00c0 20b2 113f
000002c0: 0000 0000 0e9a 353f 0000 0080 0378 3b3f
000002d0: 0000 0080 d813 463f 0000 0060 fd7e 353f
000002e0: 0000 0080 2508 3b3f 0000 0000 663c 07bf
000002f0: 0000 0060 8b56 373f 0000 0020 770f 32bf
00000300: 0000 00e0 6b06 393f 0000 00e0 0c1d 11bf
00000310: 0000 0000 5f35 2c3f 0000 0080 36ea 4ebf
00000320: 0000 0060 386a 4abf 0000 0000 104b 54bf
00000330: 0000 0080 700e 3dbf 0000 00e0 af58 45bf
00000340: 0000 00a0 59d1 51bf 0000 0080 da7d 41bf
00000350: 0000 0040 704a 40bf 0000 00c0 647e 233f
00000360: 0000 0080 7e6b 303f 0000 0080 6ad5 153f
00000370: 0000 0040 d04d 213f 0000 0060 a1c5 293f
00000380: 0000 00e0 c999 143f 0000 0060 1724 413f
00000390: 0000 0040 31cb 263f 0000 0040 b06d 403f
000003a0: 0000 0060 1776 3e3f 0000 0040 1761 15bf
000003b0: 0000 0060 fe37 463f 0000 0080 0941 243f
000003c0: 0000 0000 6006 473f 0000 0080 515b 223f
000003d0: 0000 00e0 ac4d 433f 0000 00c0 b113 413f
000003e0: 0000 00c0 08ca 3c3f 0000 0060 2bf3 efbe
000003f0: 0000 0080 5673 343f 0000 0080 41a8 43bf
00000400: 0000 0080 2c36 42bf 0000 00c0 8cf0 36bf
00000410: 0000 0000 b13f 30bf 0000 0000 50ef 15bf
00000420: 0000 0000 4d77 373f 0000 0000 c756 3abf
00000430: 0000 00e0 6baa 41bf 0000 00c0 f670 123f
00000440: 0000 0040 313f 293f 0000 00c0 f891 3abf
00000450: 0000 0080 e30b d3be 0000 0000 cd9c 4d3f
00000460: 0000 0060 8bd1 3d3f 0000 0060 7161 38bf
00000470: 0000 0000 f0f3 39bf 0000 0040 5817 293f
00000480: 0000 0080 5e3e 403f 0000 0060 d508 223f
00000490: 0000 00c0 f32c 433f 0000 0040 6c56 3b3f
000004a0: 0000 00c0 ec30 53bf 0000 0080 cc26 55bf
000004b0: 0000 0060 f3e7 3cbf 0000 0060 b7e1 4d3f
000004c0: 0000 0000 0e57 413f 0000 0060 a2d4 483f
000004d0: 0000 00a0 3b4b 423f 0000 00e0 dfa6 20bf
000004e0: 0000 0040 0bfa 35bf 0000 0080 fea5 353f
000004f0: 0000 0060 3029 353f 0000 0000 3145 173f
00000500: 0000 00a0 fd24 43bf 0000 0000 1bf8 43bf
00000510: 0000 00c0 6530 25bf 0000 0000 51ca 3bbf
00000520: 0000 0000 43ba 44bf 0000 0040 6148 043f
00000530: 0000 0040 d842 45bf 0000 0020 d8f3 32bf
00000540: 0000 0080 0f02 433f 0000 00e0 4961 233f
00000550: 0000 0060 71b8 30bf 0000 00c0 9085 4cbf
00000560: 0000 0000 7806 25bf 0000 00c0 d754 473f
00000570: 0000 00c0 dfa8 3d3f 0000 0080 20cd 523f
00000580: 0000 0060 0df3 34bf 0000 0060 99d1 ea3e
00000590: 0000 0000 24fd 1abf 0000 0060 2bb0 5d3f
000005a0: 0000 0080 a0db 393f 0000 00c0 1f72 3f3f
000005b0: 0000 0080 8fb2 3f3f 0000 00c0 eaa6 323f
000005c0: 0000 00c0 a72c 53bf 0000 0040 c07e 54bf
000005d0: 0000 0080 ef4b 44bf 0000 00a0 e6f8 53bf
000005e0: 0000 0000 3e2a 56bf 0000 00e0 5718 3fbf
000005f0: 0000 0060 1cd9 4a3f 0000 0060 9837 3c3f
00000600: 0000 0000 b051 463f 0000 0000 dc70 e4be
00000610: 0000 0060 2a06 423f 0000 00c0 f8d7 403f
00000620: 0000 0040 e1d4 45bf 0000 0000 be77 f6be
00000630: 0000 0000 c197 353f 0000 00c0 d2ad 37bf
00000640: 0000 0040 313b 1fbf 0000 0040 2bc2 e4be
00000650: 0000 0080 dad5 573f 0000 00c0 6b73 623f
00000660: 0000 0080 b3cc 613f 0000 0040 3829 423f
00000670: 0000 00e0 2f12 39bf 0000 0000 161d 5bbf
00000680: 0000 0000 10d3 60bf 0000 0060 fecc 60bf
00000690: 0000 0060 d30c 57bf 0000 0000 51cc 3b3f
000006a0: 0000 00c0 5bf3 45bf 0000 00e0 cb50 33bf
000006b0: 0000 00c0 c574 363f 0000 00c0 608e 433f
000006c0: 0000 0040 f973 323f 0000 0000 6bf7 5e3f
000006d0: 0000 00e0 43ba 483f 0000 0060 a2bb 503f
000006e0: 0000 0040 9ab9 553f 0000 0040 7142 42bf
000006f0: 0000 0080 4bea 0f3f 0000 0000 1d01 4b3f
00000700: 0000 0000 ac2f 4abf 0000 0080 5cc8 52bf
00000710: 0000 0060 d9b5 56bf 0000 00c0 ea90 5fbf
00000720: 0000 00c0 20b1 45bf 0000 0000 4ab1 3a3f
00000730: 0000 0060 7039 40bf 0000 00e0 6f42 4f3f
00000740: 0000 00c0 f56b 1ebf 0000 0080 16f5 3f3f
00000750: 0000 00e0 fd81 403f 0000 0000 49b3 4b3f
00000760: 0000 0080 a07b 343f 0000 0060 fd65 4c3f
00000770: 0000 0060 11b2 583f 0000 00c0 c8ff 483f
00000780: 0000 0080 63d7 563f 0000 00c0 83b1 493f
00000790: 0000 0080 7415 3f3f 0000 0080 3f72 53bf
000007a0: 0000 00e0 ab11 5cbf 0000 00e0 7b9c 5abf
000007b0: 0000 00c0 5d7c 54bf 0000 0080 7869 303f
000007c0: 0000 0080 7f2b 4cbf 0000 00c0 6489 0fbf
000007d0: 0000 0040 40ec 553f 0000 0040 273d 403f
000007e0: 0000 0060 7bfc 2b3f 0000 0080 2745 523f
000007f0: 0000 0000 83f9 1b3f 0000 00c0 578c 5c3f
0.0 -0.00014149502385407686 -0.00017839173960965127 -0.0006178797921165824 0.001301331096328795 0.001260025892406702 0.0007606802391819656 0.000574543490074575
0.0005877178627997637 0.0003539106692187488 -5.307204986593206e-08 0.00016111948934849352 0.000938364421017468 0.0009414920932613313 0.001117929583415389 0.001138654537498951
0.0005181946326047182 8.407566201640293e-05 0.00037062307819724083 0.00032613263465464115 0.000297695049084723 -0.00012384291039779782 -0.00041625561425462365 -0.0003748269227799028
-0.0004918887279927731 -0.0002710665576159954 -0.00031326344469562173 -0.00022455252474173903 -8.435103518422693e-05 0.00043126087985001504 0.0005874213529750705 0.00048460601828992367
-0.00010360196756664664 0.0003092468832619488 0.0001142492619692348 0.00012984607019461691 0.00017932527407538146 -0.0001421148917870596 0.00020569231128320098 -0.00019348406931385398
-4.086328772245906e-05 -0.00031494032009504735 -0.0006065900670364499 -0.0002933454525191337 -0.0004956905031576753 -0.00012738762598019093 0.0003929652739316225 0.00041819922626018524
-0.0007182895205914974 -0.0006589473923668265 -0.00043937511509284377 -0.00012633104051928967 -0.0003769015602301806 6.46916450932622e-05 0.00017558338004164398 0.0002629353548400104
0.0005513010546565056 0.0004827858356293291 6.197496986715123e-05 -2.4480701540596783e-05 -0.00023899920051917434 -0.00038508494617417455 1.238102686329512e-05 -1.5212222024274524e-05
-0.00028881695470772684 0.0003056243876926601 0.00048145075561478734 0.00022832828108221292 0.00018316577188670635 0.0002908542228396982 0.0004858036991208792 -0.000186389937880449
-0.00017748164827935398 9.353231575914833e-07 -0.00017710044630803168 -0.000228118195082061 -0.0007204182329587638 0.00018538259610068053 0.0001004208461381495 0.0003815795062109828
8.158362470567226e-05 2.987104198837187e-05 -0.0002262811758555472 0.0003893108805641532 0.0006288950680755079 0.00041403586510568857 0.0002604722685646266 6.75041665090248e-05
0.0003296169452369213 0.00041914067696779966 0.000673752510920167 0.000328003749018535 0.00041247287299484015 -4.4319021981209517e-05 0.00035611059865914285 -0.0002755800087470561
0.0003818524710368365 -6.528273661388084e-05 0.0002152136294171214 -0.0009434476960450411 -0.0008061194675974548 -0.001238599419593811 -0.00044336554128676653 -0.000651441456284374
-0.0010875106090679765 -0.0005338017363101244 -0.0004971550079062581 0.00014872531755827367 0.000250547775067389 8.328878902830184e-05 0.000132018729345873 0.0001966247073141858
7.85855736467056e-05 0.0005231012473814189 0.00017390228458680212 0.0005013571353629231 0.0004648024623747915 -8.155540854204446e-05 0.0006780616822652519 0.00015452614752575755
0.0007026642560958862 0.00014005060074850917 0.0005890936008654535 0.0005211465759202838 0.0004392882692627609 -1.5234890270221513e-05 0.000312050455249846 -0.0005998916458338499
-0.0005557744298130274 -0.00035003124503418803 -0.00024793692864477634 -8.367467671632767e-05 0.00035806302912533283 -0.0004019008483737707 -0.0005391146405600011 7.034784357529134e-05
0.00019261814304627478 -0.00040542910574004054 -4.541025191429071e-06 0.00090370187535882 0.0004549947043415159 -0.00037201898521743715 -0.00039600953459739685 0.00019143059034831822
0.000495716230943799 0.00013759236026089638 0.0005851926980540156 0.0004171385080553591 -0.0011713325511664152 -0.0012909886427223682 -0.0004410714318510145 0.0009119172464124858
0.0005291765555739403 0.0007577698561362922 0.0005582848680205643 -0.00012704356049653143 -0.00033533835085108876 0.00033032859209924936 0.00032288962393067777 8.876906940713525e-05
-0.0005842436221428216 -0.0006094104610383511 -0.00016165964188985527 -0.00042404630221426487 -0.0006325556896626949 3.868624480674043e-05 -0.0006488376529887319 -0.0002891924523282796
0.0005800796207040548 0.0001478579215472564 -0.00025513427681289613 -0.0008704144274815917 -0.0001604100689291954 0.0007120183436200023 0.0004525705589912832 0.0011475388891994953
-0.0003196628240402788 1.2788174899469595e-05 -0.00010295421816408634 0.001812021597288549 0.000394560513086617 0.00047982478281483054 0.00048366549890488386 0.0002846072311513126
-0.0011703146155923605 -0.0012509229127317667 -0.0006194037850946188 -0.0012190105626359582 -0.0013528447598218918 -0.00047447343240492046 0.0008193386602215469 0.00043055982678197324
0.0006811246275901794 -9.746960131451488e-06 0.0005500513943843544 0.0005140270804986358 -0.0006662464002147317 -2.1426909370347857e-05 0.0003294798079878092 -0.00036131282104179263
-0.000119137650472112 -9.898411008180119e-06 0.0014547952450811863 0.002252302598208189 0.0021728044375777245 0.0005542301805689931 -0.00038255375693552196 -0.0016548838466405869
-0.002053767442703247 -0.002050873590633273 -0.001406866475008428 0.00042416551150381565 -0.0006698797224089503 -0.0002947328321170062 0.00034265354042872787 0.000596806756220758
0.00028157077031210065 0.0018900437280535698 0.0007546264096163213 0.0010212979977950454 0.0013259893748909235 -0.0005572369555011392 6.087344081606716e-05 0.0008241073228418827
-0.0007991399616003036 -0.0011464026756584644 -0.0013861296465620399 -0.001926640747115016 -0.0006619844352826476 0.0004072957672178745 -0.0004951285081915557 0.0009539648308418691
-0.00011604964674916118 0.0004876308375969529 0.000503777468111366 0.0008453470654785633 0.0003125445218756795 0.0008666503126733005 0.001507298438809812 0.0007629137253388762
0.0013941260986030102 0.0007841008482500911 0.0004743012832477689 -0.0011869068257510662 -0.0017131975619122386 -0.0016242227284237742 -0.001250354340299964 0.0002504271687939763
-0.0008596775587648153 -6.015146936988458e-05 0.0013380649033933878 0.0004955712938681245 0.00021351820032577962 0.0011151204816997051 0.00010671484051272273 0.0017424446996301413
