histograms/histogram_linear2.weight.mean_Hyper__Walker2DBulletEnv-v0_seed4_scale1.npy (npy, 62072 bytes, 1 tensors)

array f8 [7743]
00000000: 0000 0000 0000 0000 0000 00c0 1fa9 e23e
00000010: 0000 00e0 dc6a c23e 0000 0000 aab1 f0be
00000020: 0000 0080 3bcb 15bf 0000 0020 dd71 07bf
00000030: 0000 0000 7131 02bf 0000 00c0 eaa1 fdbe
00000040: 0000 0080 1b72 ffbe 0000 0080 c3ea 05bf
00000050: 0000 0060 eb58 09bf 0000 0020 2eb8 16bf
00000060: 0000 0080 706d 1dbf 0000 00e0 2298 19bf
00000070: 0000 00c0 7205 15bf 0000 00c0 13b3 18bf
00000080: 0000 0080 66e4 16bf 0000 00e0 8c1b 13bf
00000090: 0000 0000 141b 18bf 0000 0000 f550 17bf
000000a0: 0000 00c0 6c21 1dbf 0000 0080 b495 1ebf
000000b0: 0000 0040 153b 1cbf 0000 0080 e732 14bf
000000c0: 0000 0040 d82c 20bf 0000 00c0 1b8f 1bbf
000000d0: 0000 0040 3840 22bf 0000 0040 3cdd 21bf
000000e0: 0000 0080 377a 22bf 0000 00a0 c522 1ebf
000000f0: 0000 00e0 46f7 20bf 0000 0000 0ac7 17bf
00000100: 0000 0040 eeb3 12bf 0000 0040 dcfc 11bf
00000110: 0000 0080 61ec 06bf 0000 0000 c889 c63e
00000120: 0000 00c0 5e2a ee3e 0000 0000 d27c 013f
00000130: 0000 0040 9d8e e63e 0000 0060 f349 0a3f
00000140: 0000 00a0 7981 fb3e 0000 00a0 5228 eb3e
00000150: 0000 0040 ac57 f43e 0000 00c0 9950 ec3e
00000160: 0000 00e0 1e3a da3e 0000 0000 f03a e13e
00000170: 0000 00c0 a065 ebbe 0000 0000 f722 f93e
00000180: 0000 0060 71ed af3e 0000 00c0 1184 d63e
00000190: 0000 0020 1abb b3be 0000 00c0 56da 003f
000001a0: 0000 0020 6275 fe3e 0000 0040 9965 fe3e
000001b0: 0000 0000 fd73 f63e 0000 0080 0e92 fb3e
000001c0: 0000 0000 9fa9 053f 0000 00c0 a8e1 e53e
000001d0: 0000 0000 4048 fb3e 0000 00c0 a8b5 013f
000001e0: 0000 0000 1541 e43e 0000 0060 9ed6 c83e
000001f0: 0000 0000 7d21 dabe 0000 0080 36af e3be
00000200: 0000 0080 8474 f6be 0000 00c0 cf91 fcbe
00000210: 0000 0000 f815 f3be 0000 0080 c8a9 d7be
00000220: 0000 0080 f7cf f2be 0000 0080 a665 e43e
00000230: 0000 00c0 2634 f6be 0000 00e0 7fb1 06bf
00000240: 0000 0040 4acb 00bf 0000 00c0 b6db f3be
00000250: 0000 0000 41c9 e5be 0000 0000 6dd6 e1be
00000260: 0000 0040 5345 cfbe 0000 0060 ebc8 f13e
00000270: 0000 00c0 7578 eebe 0000 0000 ad15 f6be
00000280: 0000 0040 fc5e b0be 0000 00e0 742c e2be
00000290: 0000 0080 608b c23e 0000 0080 c5bb c63e
000002a0: 0000 0080 610d dcbe 0000 0080 8919 dabe
000002b0: 0000 0080 d344 ef3e 0000 0020 fccf e43e
000002c0: 0000 0060 7d55 f63e 0000 0080 b6c5 e23e
000002d0: 0000 00e0 6bba f63e 0000 00c0 703d ea3e
000002e0: 0000 0080 0db9 f93e 0000 0000 684c f63e
000002f0: 0000 00c0 2064 f03e 0000 0080 60d5 f53e
00000300: 0000 0080 d7c6 c53e 0000 0080 9ba8 cf3e
00000310: 0000 0080 759f e0be 0000 00a0 4dba d33e
00000320: 0000 0060 0108 f33e 0000 00c0 d5b2 b33e
00000330: 0000 0060 ab26 adbe 0000 0060 2ea6 e2be
00000340: 0000 00a0 19be e0be 0000 0040 1b6d 083f
00000350: 0000 00c0 c580 c83e 0000 0040 ee42 f7be
00000360: 0000 0080 2042 d8be 0000 0020 a3c2 c8be
00000370: 0000 0040 5f70 f9be 0000 00a0 d597 a33e
00000380: 0000 0080 e3b7 f9be 0000 0060 c181 fbbe
00000390: 0000 00e0 8dc7 febe 0000 0000 181b febe
000003a0: 0000 00e0 872d f5be 0000 0040 06d4 c5be
000003b0: 0000 0000 a0b1 f4be 0000 00c0 1fb0 f6be
000003c0: 0000 0000 87f3 0bbf 0000 0000 b5c0 febe
000003d0: 0000 0000 3a29 fdbe 0000 0060 be15 c5be
000003e0: 0000 0000 3e51 c0be 0000 00c0 eb81 d9be
000003f0: 0000 0040 d96c ce3e 0000 0040 2fe9 023f
00000400: 0000 0060 61b0 cebe 0000 00a0 64a8 f93e
00000410: 0000 0080 da03 fa3e 0000 0080 fe0c 003f
00000420: 0000 0040 4bc0 fd3e 0000 0060 750e d23e
00000430: 0000 0080 9ee5 d83e 0000 0040 fe2a e33e
00000440: 0000 0080 a3e3 ec3e 0000 00c0 576c d43e
00000450: 0000 00e0 36bd fa3e 0000 0040 d7c0 d73e
00000460: 0000 00c0 83fa fb3e 0000 0000 3215 a63e
00000470: 0000 0000 a882 d13e 0000 0000 030d eebe
00000480: 0000 0020 e050 f3be 0000 0000 3bcf 05bf
00000490: 0000 00c0 c471 0abf 0000 0060 c99b 06bf
000004a0: 0000 0080 c3a0 05bf 0000 00c0 431d 15bf
000004b0: 0000 00c0 f90b 18bf 0000 0040 0197 f5be
000004c0: 0000 00e0 d9ad d8be 0000 00a0 bf6f f8be
000004d0: 0000 0000 4a45 ebbe 0000 0060 6068 febe
000004e0: 0000 0000 f39f e63e 0000 0080 0d26 f43e
000004f0: 0000 00e0 be0a de3e 0000 0040 0bd7 f53e
00000500: 0000 00a0 05ae ec3e 0000 00c0 7589 e33e
00000510: 0000 0060 c673 0c3f 0000 0000 4acb fd3e
00000520: 0000 0000 06d9 013f 0000 0000 21fe 0c3f
00000530: 0000 0040 9a89 db3e 0000 0000 9053 f23e
00000540: 0000 0040 233b d2be 0000 0000 ed61 08bf
00000550: 0000 00c0 b08d 0dbf 0000 0040 0e7e 09bf
00000560: 0000 00c0 80b6 fdbe 0000 0080 8403 eebe
00000570: 0000 0060 7fb3 c1be 0000 00e0 0560 d9be
00000580: 0000 0000 9353 f1be 0000 00c0 c189 ed3e
00000590: 0000 00c0 33e6 f13e 0000 00a0 0038 cd3e
000005a0: 0000 00a0 60a8 013f 0000 0080 a61e 0a3f
000005b0: 0000 0000 5b86 f03e 0000 0000 5235 fbbe
000005c0: 0000 0000 aa4c d03e 0000 0000 839d ef3e
000005d0: 0000 00c0 87d4 f1be 0000 0000 0ff6 f7be
000005e0: 0000 00c0 c357 e1be 0000 00c0 f122 d6be
000005f0: 0000 0080 0d35 e8be 0000 0040 9b9b f8be
00000600: 0000 0000 0324 aa3e 0000 0020 7a9e 04bf
00000610: 0000 0040 059b eebe 0000 00e0 816f cc3e
00000620: 0000 0000 1d47 883e 0000 0080 aca6 f93e
00000630: 0000 00c0 ba1f e83e 0000 00c0 9c31 f6be
00000640: 0000 0040 bb37 f4be 0000 0000 b2fb ec3e
00000650: 0000 0020 ec70 033f 0000 0040 078d f83e
00000660: 0000 0000 8211 9cbe 0000 0020 503b f83e
00000670: 0000 00a0 908c ef3e 0000 00c0 6d6e d9be
00000680: 0000 0040 2196 b8be 0000 00c0 8c14 debe
00000690: 0000 0040 55fe f73e 0000 0080 9b87 f6be
000006a0: 0000 0080 3bff fabe 0000 0060 64ea d63e
000006b0: 0000 0000 70a2 e5be 0000 0060 a720 fc3e
000006c0: 0000 00a0 118a e73e 0000 0080 790e df3e
000006d0: 0000 0060 caef ec3e 0000 0000 a67a db3e
000006e0: 0000 0020 8335 f2be 0000 00c0 e40a 9d3e
000006f0: 0000 00a0 2a20 bbbe 0000 0000 0962 f2be
00000700: 0000 0060 677c f83e 0000 0040 9881 03bf
00000710: 0000 0080 ea00 f7be 0000 00a0 6891 f7be
00000720: 0000 00c0 8402 01bf 0000 00a0 8ef2 f4be
00000730: 0000 0000 d67c f4be 0000 0060 d8b5 08bf
00000740: 0000 0020 6b72 ddbe 0000 0000 dd24 893e
00000750: 0000 0060 8d05 e43e 0000 00e0 cd59 fc3e
00000760: 0000 00c0 013a 043f 0000 00c0 76d5 f73e
00000770: 0000 00a0 c104 f63e 0000 0040 4f89 063f
00000780: 0000 0080 7e7f da3e 0000 0000 5b21 e6be
00000790: 0000 00c0 dae1 c5be 0000 00a0 78e8 d2be
000007a0: 0000 00c0 545d 08bf 0000 0040 c1d3 f8be
000007b0: 0000 0040 718b e3be 0000 00c0 d776 efbe
000007c0: 0000 0040 5c74 edbe 0000 0080 ccd4 fc3e
000007d0: 0000 0040 da4a db3e 0000 0000 b1cc e7be
000007e0: 0000 0040 7c51 e93e 0000 0040 4ea3 f2be
000007f0: 0000 0080 ccc5 f43e 0000 00c0 c432 ed3e
0.0 8.898086889530532e-06 2.195529077653191e-06 -1.592063927091658e-05 -8.313704165630043e-05 -4.471736974664964e-05 -3.470064257271588e-05 -2.8259742975933477e-05
-2.9988987080287188e-05 -4.180344694759697e-05 -4.834621722693555e-05 -8.66678383317776e-05 -0.00011225699563510716 -9.76344381342642e-05 -8.018982771318406e-05 -9.422119183000177e-05
-8.73267708811909e-05 -7.288977940334007e-05 -9.195622988045216e-05 -8.894439088180661e-05 -0.00011112428910564631 -0.00011667169746942818 -0.00010769192886073142 -7.705247844569385e-05
-0.00012340678949840367 -0.00010512930748518556 -0.00013924299855716527 -0.00013629303430207074 -0.00014097144594416022 -0.00011495906073832884 -0.00012943973706569523 -9.070395026355982e-05
-7.134572661016136e-05 -6.86177663737908e-05 -4.3722844566218555e-05 2.686763764359057e-06 1.4384035239345394e-05 3.335491055622697e-05 1.0756057235994376e-05 5.014203998143785e-05
2.6231538868159987e-05 1.2949710253451485e-05 1.9400093151489273e-05 1.3501570720109157e-05 6.253012088563992e-06 8.216011337935925e-06 -1.3063900041743182e-05 2.397211210336536e-05
9.51513982272445e-07 5.368207894207444e-06 -1.1760513416447793e-06 3.2144329452421516e-05 2.9047516363789327e-05 2.89887138933409e-05 2.1412924979813397e-05 2.6293309929315e-05
4.131809691898525e-05 1.0433903298689984e-05 2.6018358767032623e-05 3.377839311724529e-05 9.65796789387241e-06 2.9609625471493928e-06 -6.230071448953822e-06 -9.386265446664765e-06
-2.141489676432684e-05 -2.724607111304067e-05 -1.8201651982963085e-05 -5.641750249196775e-06 -1.7940874386113137e-05 9.726081771077588e-06 -2.117511394317262e-05 -4.328414433985017e-05
-3.203220694558695e-05 -1.8938309949589893e-05 -1.038844493450597e-05 -8.505630830768496e-06 -3.727770035766298e-06 1.696094659564551e-05 -1.4529488908010535e-05 -2.1061583538539708e-05
-9.75789816948236e-07 -8.66587561176857e-06 2.2106696633272804e-06 2.710042281250935e-06 -6.688182111247443e-06 -6.222666343091987e-06 1.491015063947998e-05 9.924145160766784e-06
2.129930908267852e-05 8.951337804319337e-06 2.1675308744306676e-05 1.2512207831605338e-05 2.4531233066227287e-05 2.1265470422804356e-05 1.563179466756992e-05 2.0822051737923175e-05
2.5959880076698028e-06 3.7740019251941703e-06 -7.926410034997389e-06 4.703461399913067e-06 1.8149634342989884e-05 1.1741265097953146e-06 -8.687690637998458e-07 -8.892605364962947e-06
-7.983483556017745e-06 4.658927355194464e-05 2.920987299148692e-06 -2.2183845430845395e-05 -5.783631422673352e-06 -2.951657961602905e-06 -2.4260476493509486e-05 5.839199843649112e-07
-2.4526896595489234e-05 -2.6232582968077622e-05 -2.9353626814554445e-05 -2.8711161576211452e-05 -2.019677594944369e-05 -2.602126642159419e-06 -1.9735191017389297e-05 -2.1636948076775298e-05
-5.331283318810165e-05 -2.9328119126148522e-05 -2.7810136089101434e-05 -2.513520257707569e-06 -1.9451799744274467e-06 -6.081462743168231e-06 3.6269652810005937e-06 3.606963582569733e-05
-3.65841219718277e-06 2.4469170966767706e-05 2.4809887690935284e-05 3.0614392017014325e-05 2.8372905944706872e-05 4.304999947635224e-06 5.935895387665369e-06 9.139987014350481e-06
1.3775450497632846e-05 4.869273652730044e-06 2.550041062931996e-05 5.663224328600336e-06 2.6682446332415566e-05 6.581185516552068e-07 4.174798959866166e-06 -1.4329350960906595e-05
-1.842109668359626e-05 -4.159830859862268e-05 -5.0438706239219755e-05 -4.312237069825642e-05 -4.1252103983424604e-05 -8.054471982177347e-05 -9.173118451144546e-05 -2.0589697669493034e-05
-5.883957328478573e-06 -2.3304479327634908e-05 -1.300366420764476e-05 -2.8999062124057673e-05 1.0788346116896719e-05 1.9215243810322136e-05 7.162564997997833e-06 2.082826176774688e-05
1.3675581612915266e-05 9.315945135313086e-06 5.4268351959763095e-05 2.8413865948095918e-05 3.404187737032771e-05 5.5299169616773725e-05 6.565453986695502e-06 1.7477432265877724e-05
-4.346610694483388e-06 -4.650597111321986e-05 -5.636878631776199e-05 -4.862290370510891e-05 -2.833643156918697e-05 -1.4311666745925322e-05 -2.1101429865666432e-06 -6.04989281782764e-06
-1.652380160521716e-05 1.4084869690123014e-05 1.7070033209165558e-05 3.483147565930267e-06 3.3679436455713585e-05 4.981942765880376e-05 1.5759302186779678e-05 -2.5947840185835958e-05
3.886096237692982e-06 1.5075340343173593e-05 -1.7004200344672427e-05 -2.2851148969493806e-05 -8.269706086139195e-06 -5.277753189147916e-06 -1.1542910215212032e-05 -2.34678627748508e-05
7.790526979079004e-07 -3.9327718695858493e-05 -1.4593862943002023e-05 3.3897847515618196e-06 1.808836032068939e-07 2.446276630507782e-05 1.1503192581585608e-05 -2.116565519827418e-05
-1.9281102140666917e-05 1.3820259482599795e-05 3.7080961192259565e-05 2.3413555027218536e-05 -4.1825160224107094e-07 2.3109141693566926e-05 1.504377451055916e-05 -6.0633092289208435e-06
-1.4654663118562894e-06 -7.171695870056283e-06 2.2881973563926294e-05 -2.148601197404787e-05 -2.5746347091626376e-05 5.463503384817159e-06 -1.0316143743693829e-05 2.682452577573713e-05
1.1224427908018697e-05 7.404456482618116e-06 1.3798085092275869e-05 6.551526894327253e-06 -1.73654862010153e-05 4.3276776295897434e-07 -1.6168147567441338e-06 -1.7531347111798823e-05
2.335162389499601e-05 -3.720517997862771e-05 -2.1937921701464802e-05 -2.2476198864751495e-05 -3.244369145249948e-05 -1.997708204726223e-05 -1.9538536434993148e-05 -4.713121961685829e-05
-7.020699285931187e-06 1.873373776106746e-07 9.54708502831636e-06 2.703742757148575e-05 3.857915726257488e-05 2.2729724150849506e-05 2.099855373671744e-05 4.298470594221726e-05
6.317621227935888e-06 -1.0552546882536262e-05 -2.6085667741426732e-06 -4.5080400923325215e-06 -4.6471737732645124e-05 -2.3677032004343346e-05 -9.319637683802284e-06 -1.5003313819761388e-05
-1.4045015632291324e-05 2.7495618269313127e-05 6.507013495138381e-06 -1.13485220936127e-05 1.2072707249899395e-05 -1.7774498701328412e-05 1.9810344383586198e-05 1.3922841390012763e-05
