histograms/histogram_linear2.weight.mean_Hyper__HopperBulletEnv-v0_seed4_scale1.npy (npy, 518072 bytes, 1 tensors)

array f8 [64743]
0	0x0000000000000000	0.0
1	0x3ef6b50020000000	2.165511432394851e-05
2	0x3eea3c99c0000000	1.2510643500718288e-05
3	0xbed974c7a0000000	-6.069224127713824e-06
4	0xbef1fb70e0000000	-1.7149153791251592e-05
5	0xbf0243e700000000	-3.48381872754544e-05
6	0xbf13635d00000000	-7.395987631753087e-05
7	0xbf17a12780000000	-9.013942326419055e-05
8	0xbf15fd0100000000	-8.387869456782937e-05
9	0xbf1d9707c0000000	-0.00011287674715276808
10	0xbf2e890420000000	-0.0002329652343178168
11	0xbf352bc8c0000000	-0.0003230443107895553
12	0xbf358f9540000000	-0.0003289927844889462
13	0xbf34012b80000000	-0.00030524551402777433
14	0xbf33fb1900000000	-0.0003048835787922144
15	0xbf36fd1780000000	-0.0003507788060232997
16	0xbf31bf0400000000	-0.0002707848325371742
17	0xbf30f11a40000000	-0.00025851145619526505
18	0xbf2bb8ede0000000	-0.00021150497195776552
19	0xbf2a7fd8c0000000	-0.0002021743857767433
20	0xbf287e2aa0000000	-0.00018686552357394248
21	0xbf299a1d20000000	-0.0001953278115252033
22	0xbf31e62440000000	-0.0002731169224716723
23	0xbf2e2881a0000000	-0.00023008901916909963
24	0xbf2fe80480000000	-0.00024342589313164353
25	0xbf2ea00ee0000000	-0.00023365193919744343
26	0xbf2d81de00000000	-0.00022512278519570827
27	0xbf2da3db00000000	-0.00022613571491092443
28	0xbf28461a00000000	-0.00018519465811550617
29	0xbf217b3580000000	-0.00013337162090465426
30	0xbf1fdb6e80000000	-0.00012152540148235857
31	0xbf28297740000000	-0.00018434124649502337
32	0xbeff9fc9c0000000	-3.0159160814946517e-05
33	0x3ee8b44b80000000	1.1779917258536443e-05
34	0x3efdb7ec40000000	2.8341721190372482e-05
35	0x3f091f1200000000	4.791520768776536e-05
36	0x3f15798f80000000	8.192003588192165e-05
37	0x3f1779dba0000000	8.955386147135869e-05
38	0x3f18755ca0000000	9.330156171927229e-05
39	0x3f17a5d220000000	9.02089595911093e-05
40	0x3f1ce94f80000000	0.00011028812150470912
41	0x3f2142ad80000000	0.00013168685836717486
42	0x3f1b86ba40000000	0.00010500442294869572
43	0x3f1b2a37c0000000	0.00010362592001911253
44	0x3f1833f880000000	9.232715819962323e-05
45	0x3f18e2fbe0000000	9.493505785940215e-05
46	0x3f1d053260000000	0.00011070365872001275
47	0x3f17409ca0000000	8.870082820067182e-05
48	0x3f1c100220000000	0.000107050065707881
49	0x3f1baea100000000	0.00010559899965301156
50	0x3f014753c0000000	3.295635542599484e-05
51	0x3f16f27cc0000000	8.753668225836009e-05
52	0x3f116c1ee0000000	6.646097608609125e-05
53	0x3f0d347d40000000	5.5704185797367245e-05
54	0x3f0fdc5540000000	6.076941645005718e-05
55	0x3eeff26e00000000	1.5233512385748327e-05
56	0xbeff562540000000	-2.988482083310373e-05
57	0xbed39ce880000000	-4.676085154642351e-06
58	0xbedb915b80000000	-6.572676284122281e-06
59	0xbefaf27bc0000000	-2.5698853278299794e-05
60	0xbefbb15ec0000000	-2.6409961719764397e-05
61	0xbef0cb8960000000	-1.6017022062442265e-05
62	0xbf007d7980000000	-3.145243681501597e-05
63	0xbf10b8af00000000	-6.378715625032783e-05
64	0xbf21272740000000	-0.00013086656690575182
65	0xbf0fb15700000000	-6.0449092416092753e-05
66	0xbf28edf040000000	-0.0001901965879369527
67	0xbf1d9e6840000000	-0.00011298667232040316
68	0xbf1e003c00000000	-0.00011444441042840481
69	0xbf22c455e0000000	-0.00014318035391625017
70	0xbf1c0eaec0000000	-0.0001070303114829585
71	0xbf17ef6680000000	-9.130538091994822e-05
72	0xbf08888880000000	-4.6793618821538985e-05
73	0xbf098e6940000000	-4.8744761443231255e-05
74	0xbf085e95e0000000	-4.648108370020054e-05
75	0xbf0adce720000000	-5.1236918807262555e-05
76	0xbf184afec0000000	-9.267024870496243e-05
77	0xbf02ca5d00000000	-3.583999932743609e-05
78	0xbf0aec2900000000	-5.135059473104775e-05
79	0xbef908aee0000000	-2.3874204998719506e-05
80	0xbf09355c80000000	-4.808128869626671e-05
81	0xbf0706fac0000000	-4.392101982375607e-05
82	0x3ed1241600000000	4.086723492946476e-06
83	0x3ec028bfe0000000	1.926324102896615e-06
84	0xbf00923e60000000	-3.160717824357562e-05
85	0xbf06a35bc0000000	-4.317878483561799e-05
86	0x3efe5b4440000000	2.895022407756187e-05
87	0x3eead5a980000000	1.2795742804883048e-05
88	0x3f02f4eb80000000	3.6157071008346975e-05
89	0x3ee3e04640000000	9.477649655309506e-06
90	0x3ef0175900000000	1.534576585981995e-05
91	0xbef1d13140000000	-1.6991765733109787e-05
92	0xbf08a36c80000000	-4.699396959040314e-05
93	0xbf0b264940000000	-5.178366700420156e-05
94	0xbf12417840000000	-6.964012573007494e-05
95	0xbf103aabc0000000	-6.190942076500505e-05
96	0xbed3e6b060000000	-4.744798843603348e-06
97	0xbef35cc860000000	-1.846545455919113e-05
98	0xbeeb4fe5c0000000	-1.302342388953548e-05
99	0xbeedaaa1a0000000	-1.414610323990928e-05
100	0x3eff9d8980000000	3.015077527379617e-05
101	0xbed46eecc0000000	-4.871678356721532e-06
102	0x3f03c0a260000000	3.767486123251729e-05
103	0x3ef3e29500000000	1.896389585454017e-05
104	0x3f07038620000000	4.389527384773828e-05
105	0x3ef15ed540000000	1.656574386288412e-05
106	0x3f0842fe00000000	4.627549787983298e-05
107	0xbef39ad9e0000000	-1.8696677216212265e-05
108	0x3ee0e97300000000	8.064227586146444e-06
109	0x3efae79d00000000	2.5658358936198056e-05
110	0x3eff371b00000000	2.976918767672032e-05
111	0xbf01cb6380000000	-3.394029045011848e-05
112	0xbe94527f00000000	-3.0282512852863874e-07
113	0x3ede03aea0000000	7.15598662281991e-06
114	0xbf114bccc0000000	-6.59793586237356e-05
115	0xbefb5214e0000000	-2.605498411867302e-05
116	0xbeedb3f9e0000000	-1.416350914951181e-05
117	0xbf09d73800000000	-4.92872204631567e-05
118	0xbef4fbad80000000	-2.0011058950331062e-05
119	0xbee11ee180000000	-8.163751772372052e-06
120	0xbef948fee0000000	-2.4113787731039338e-05
121	0xbf054a2680000000	-4.060678475070745e-05
122	0x3f005d4780000000	3.121256304439157e-05
123	0x3f120756c0000000	6.877390842419118e-05
124	0xbf02628500000000	-3.506630309857428e-05
125	0x3ef80edbc0000000	2.29435354412999e-05
126	0x3efe226ca0000000	2.8738470064126886e-05
127	0x3ef1bf18c0000000	1.6924353985814378e-05
128	0xbf12ed8240000000	-7.220370753202587e-05
129	0xbf04c9f300000000	-3.9651611587032676e-05
130	0xbee4e4b180000000	-9.962717740563676e-06
131	0x3ef1535880000000	1.65229503181763e-05
132	0xbef6f58740000000	-2.1895499230595306e-05
133	0x3f10a89c40000000	6.354764627758414e-05
134	0x3f11c51e80000000	6.778715760447085e-05
135	0xbee0bffbe0000000	-7.986992386577185e-06
136	0x3efea3cd40000000	2.9220438591437414e-05
137	0x3f09a44da0000000	4.890787022304721e-05
138	0x3f09523f00000000	4.829649697057903e-05
139	0x3f009b36c0000000	3.16740115522407e-05
140	0xbef3438ca0000000	-1.8371452824794687e-05
141	0x3f07a0c6a0000000	4.506689219851978e-05
142	0xbecd47d0c0000000	-3.490511062409496e-06
143	0x3ef4583640000000	1.9402101315790787e-05
144	0x3ee9257540000000	1.1990699931629933e-05
145	0xbef43e6900000000	-1.9305982277728617e-05
146	0xbf16d4d1e0000000	-8.709460234967992e-05
147	0xbee4d27240000000	-9.928729923558421e-06
148	0x3ef2630640000000	1.7535032384330407e-05
149	0xbf12065d80000000	-6.87594001647085e-05
150	0xbf1b885f20000000	-0.00010502892109798267
151	0xbf15261480000000	-8.067607996053994e-05
152	0xbf110572c0000000	-6.493103865068406e-05
153	0x3ed2cfb3c0000000	4.484972123464104e-06
154	0xbf0e9e7ee0000000	-5.840134326717816e-05
155	0xbed6ea6140000000	-5.463492016133387e-06
156	0xbf0472de00000000	-3.900279989466071e-05
157	0x3f0a89a600000000	5.061662523075938e-05
158	0x3ee226ef00000000	8.655588317196816e-06
159	0x3f0b003860000000	5.15000538143795e-05
160	0x3f1b154ac0000000	0.00010331410157959908
161	0x3f0d00afe0000000	5.531822898774408e-05
162	0x3f2045d260000000	0.00012415116361808032
163	0x3f0fb80b40000000	6.049904186511412e-05
164	0x3f1d426f20000000	0.00011161616566823795
165	0x3f1383fc60000000	7.444599032169208e-05
166	0x3f203b5460000000	0.00012383847206365317
167	0xbf0e79d4e0000000	-5.812817471451126e-05
168	0xbf01401600000000	-3.290240420028567e-05
169	0x3f01d7f700000000	3.4033990232273936e-05
170	0x3ea92be480000000	7.501678283006186e-07
171	0xbf18b392c0000000	-9.422858420293778e-05
172	0xbf0dff0100000000	-5.721303750760853e-05
173	0x3f01ac2e80000000	3.3707779948599637e-05
174	0xbf21770a80000000	-0.00013324740575626493
175	0xbf1d7d5960000000	-0.0001124940681620501
176	0xbf113ae260000000	-6.572729762410745e-05
177	0xbf03fb7500000000	-3.811312490142882e-05
178	0xbf1f17da80000000	-0.00011861106031574309
179	0x3ef02452c0000000	1.5394103684229776e-05
180	0xbee413f660000000	-9.573926035955083e-06
181	0xbf0b6f7360000000	-5.232878538663499e-05
182	0x3f1039efc0000000	6.189847772475332e-05
183	0x3f1b766800000000	0.00010476121678948402
184	0x3f0dc12ea0000000	5.6752429372863844e-05
185	0x3eef6ef4a0000000	1.498862275184365e-05
186	0x3f11133500000000	6.513606058433652e-05
187	0xbf017469c0000000	-3.3292271837126464e-05
188	0x3f006346c0000000	3.125724470010027e-05
189	0xbf144e6680000000	-7.746220217086375e-05
190	0x3ebf407880000000	1.8627547433425207e-06
191	0xbf13b0ae80000000	-7.511200965382159e-05
192	0xbf0ff983c0000000	-6.098683661548421e-05
193	0xbf1912bdc0000000	-9.564669744577259e-05
194	0xbf246e7a40000000	-0.00015588037786073983
195	0x3ef0ec4b20000000	1.6139050785568543e-05
196	0x3ec1647040000000	2.073328232654603e-06
197	0x3f10e92e00000000	6.450980436056852e-05
198	0x3f1d87f7c0000000	0.00011265229841228575
199	0x3f15e4d500000000	8.351850556209683e-05
200	0x3f14581600000000	7.760652806609869e-05
201	0x3ee8850400000000	1.1691852705553174e-05
202	0x3f20e12ae0000000	0.00012878082634415478
203	0x3ef5d9c880000000	2.0838466298300773e-05
204	0x3efa6303c0000000	2.5164390535792336e-05
205	0xbef1bf4ac0000000	-1.6925081581575796e-05
206	0xbf0ccfa3e0000000	-5.495280129252933e-05
207	0xbee87afb00000000	-1.1673160770442337e-05
208	0xbf08ed71c0000000	-4.75454653496854e-05
209	0xbef72b0080000000	-2.2094704036135226e-05
210	0xbf28ee6380000000	-0.00019021000480279326
211	0xbf15950d40000000	-8.23296868475154e-05
212	0xbefaecc240000000	-2.5677527446532622e-05
213	0xbef6c13760000000	-2.170062180084642e-05
214	0x3f08638f60000000	4.651814742828719e-05
215	0x3efeb05820000000	2.9267162972246297e-05
216	0xbefe62b300000000	-2.8977912734262645e-05
217	0x3ef5057800000000	2.0047533325850964e-05
218	0x3ef6002de0000000	2.09815025300486e-05
219	0x3ef13d7900000000	1.644146686885506e-05
220	0x3f0965b480000000	4.844147770199925e-05
221	0x3f0641cc40000000	4.245190211804584e-05
222	0x3f00a55dc0000000	3.174965240759775e-05
223	0x3efaf71180000000	2.571593358879909e-05
224	0xbf0bed1180000000	-5.326471000444144e-05
225	0xbf18913400000000	-9.371642954647541e-05
226	0x3f0addafe0000000	5.1242761401226744e-05
227	0x3f14a653a0000000	7.87724056863226e-05
228	0x3f0ed64240000000	5.881681136088446e-05
229	0xbf1465b540000000	-7.780951273161918e-05
230	0x3f00e4fda0000000	3.222369196009822e-05
231	0x3f057cac40000000	4.098320641787723e-05
232	0xbf0ff75640000000	-6.097061123000458e-05
233	0xbf145d2400000000	-7.768184877932072e-05
234	0x3f07a81480000000	4.5121312723495066e-05
235	0x3eea608900000000	1.2577576853800565e-05
236	0x3f135a1780000000	7.382172043435276e-05
237	0xbef6040200000000	-2.0995765225961804e-05
238	0xbe7745f900000000	-8.669991302667768e-08
239	0x3f13816560000000	7.440739864250645e-05
240	0x3f0dbabee0000000	5.670447353622876e-05
241	0xbef2086b40000000	-1.7197500710608438e-05
242	0xbf090f09c0000000	-4.779575829161331e-05
243	0x3f03edd3c0000000	3.801157436100766e-05
244	0xbef90b6980000000	-2.3884371330495924e-05
245	0xbef9449780000000	-2.4097382265608758e-05
246	0xbf07c2f480000000	-4.5321547077037394e-05
247	0xbf1c3e3c40000000	-0.00010773890244308859
248	0xbf14ae12c0000000	-7.888783875387162e-05
249	0x3f092616e0000000	4.79675036331173e-05
250	0x3f0d9c3540000000	5.647695070365444e-05
251	0x3f13ed2fe0000000	7.601360994158313e-05
252	0xbf0b1d5820000000	-5.171704469830729e-05
253	0x3f1009cb40000000	6.118109740782529e-05
254	0x3f01d2f060000000	3.399654451641254e-05
255	0x3f14ea2ec0000000	7.978353824000806e-05
