histograms/histogram_linear3a.weight.mean_Hyper__Walker2DBulletEnv-v0_seed4_scale1.npy (npy, 62072 bytes, 1 tensors)

array f8 [7743]
000000 00 00 00 00 00 00 00 00 00 00 00 60 51 d7 1b 3f
       0.0 0.00010620531247695908
000010 00 00 00 80 fa ea 32 3f 00 00 00 60 82 08 4f 3f
       0.0002886640140786767 0.000947059306781739
000020 00 00 00 60 66 8e 5a 3f 00 00 00 a0 76 41 52 3f
       0.0016208648448809981 0.0011142404982820153
000030 00 00 00 20 c3 8d 51 3f 00 00 00 60 e6 08 53 3f
       0.0010713964002206922 0.0011617898708209395
000040 00 00 00 60 fe 8f 52 3f 00 00 00 40 7f 15 59 3f
       0.0011329635744914412 0.0015310042072087526
000050 00 00 00 60 23 1c 5e 3f 00 00 00 80 a9 5d 61 3f
       0.0018377633532509208 0.0021198568865656853
000060 00 00 00 a0 c4 62 62 3f 00 00 00 c0 dc db 5f 3f
       0.002244361909106374 0.0019445091020315886
000070 00 00 00 c0 f2 ca 5a 3f 00 00 00 c0 a7 a4 5b 3f
       0.0016353006940335035 0.001687206095084548
000080 00 00 00 60 eb f5 59 3f 00 00 00 00 41 a2 55 3f
       0.001584510668180883 0.0013204226270318031
000090 00 00 00 40 85 7f 59 3f 00 00 00 c0 bd 01 56 3f
       0.001556282164528966 0.0013431885745376348
0000a0 00 00 00 40 de bd 56 3f 00 00 00 40 73 99 54 3f
       0.0013880415353924036 0.0012572885025292635
0000b0 00 00 00 00 e7 e5 51 3f 00 00 00 00 b6 69 43 3f
       0.001092410646378994 0.000592435710132122
0000c0 00 00 00 00 9f 4a 3e 3f 00 00 00 00 76 c9 3d 3f
       0.00046221143566071987 0.00045451289042830467
0000d0 00 00 00 c0 f2 d0 42 3f 00 00 00 60 1c b6 37 3f
       0.0005742249777540565 0.00036180680035613477
0000e0 00 00 00 c0 a6 52 41 3f 00 00 00 40 4c ac 32 3f
       0.0005286516388878226 0.0002849279553629458
0000f0 00 00 00 e0 19 c7 31 3f 00 00 00 80 5e 19 22 bf
       0.0002712667628657073 -0.00013808516087010503
000100 00 00 00 e0 8e 04 32 bf 00 00 00 40 24 89 43 bf
       -0.0002749298873823136 -0.0005961825372651219
000110 00 00 00 e0 80 1e 44 bf 00 00 00 60 c6 7c 55 bf
       -0.0006139878532849252 -0.001311486936174333
000120 00 00 00 40 55 23 55 bf 00 00 00 e0 86 d7 56 bf
       -0.0012901623267680407 -0.0013941590441390872
000130 00 00 00 c0 72 42 56 bf 00 00 00 60 69 0a 5c bf
       -0.0013586159329861403 -0.0017114666989073157
000140 00 00 00 60 b1 aa 5b bf 00 00 00 00 0e d1 5f bf
       -0.001688645570538938 -0.0019419323652982712
000150 00 00 00 80 cd b8 57 bf 00 00 00 00 f3 23 58 bf
       -0.001447868999093771 -0.0014734147116541862
000160 00 00 00 00 b0 15 52 bf 00 00 00 40 ea c9 4c bf
       -0.0011038035154342651 -0.0008785623358562589
000170 00 00 00 c0 f6 b3 3f bf 00 00 00 80 1e ea 48 bf
       -0.0004837491433136165 -0.0007603310514241457
000180 00 00 00 c0 a7 9a 4f bf 00 00 00 80 f3 11 54 bf
       -0.0009644812671467662 -0.0012249830178916454
000190 00 00 00 00 e6 d7 4a bf 00 00 00 e0 79 ac 47 bf
       -0.0008191941305994987 -0.000722465047147125
0001a0 00 00 00 c0 08 ae 4e bf 00 00 00 00 8d 8d 48 bf
       -0.0009362738346680999 -0.0007492960430681705
0001b0 00 00 00 e0 38 68 43 bf 00 00 00 20 2d 1f 43 bf
       -0.0005922582349739969 -0.000583550485316664
0001c0 00 00 00 c0 b6 31 42 bf 00 00 00 c0 40 3c 1b bf
       -0.0005552427610382438 -0.00010389466478955
0001d0 00 00 00 c0 9b 1b 2d bf 00 00 00 60 d6 f6 04 3f
       -0.00022207523579709232 3.9986054616747424e-05
0001e0 00 00 00 40 b8 7f 3e 3f 00 00 00 80 ef 99 33 3f
       0.00046537636080756783 0.00029909226577728987
0001f0 00 00 00 c0 ab 9e 33 3f 00 00 00 00 15 58 22 bf
       0.00029937451472505927 -0.00013995415065437555
000200 00 00 00 c0 21 d4 2b 3f 00 00 00 00 c7 bd c0 be
       0.00021231567370705307 -1.9957205950049683e-06
000210 00 00 00 40 49 2b 31 3f 00 00 00 00 65 cb 3b 3f
       0.00026197946863248944 0.00042411056347191334
000220 00 00 00 00 4f fe 38 3f 00 00 00 c0 f8 96 23 3f
       0.0003813689108937979 0.00014945780276320875
000230 00 00 00 00 78 75 4a 3f 00 00 00 40 59 98 4a 3f
       0.0008074603974819183 0.000811618403531611
000240 00 00 00 a0 19 01 52 3f 00 00 00 c0 87 1c 4a 3f
       0.001098895096220076 0.0007968581048771739
000250 00 00 00 40 e3 98 4d 3f 00 00 00 20 75 23 32 3f
       0.0009032353991642594 0.00027677163598127663
000260 00 00 00 00 00 64 3d 3f 00 00 00 80 6d 06 3f 3f
       0.00044846534729003906 0.00047340558376163244
000270 00 00 00 c0 d8 2a 47 3f 00 00 00 00 b7 1e 4b 3f
       0.0007070120191201568 0.0008276361040771008
000280 00 00 00 40 1e c7 46 3f 00 00 00 c0 7b 92 45 3f
       0.0006951234536245465 0.0006583313224837184
000290 00 00 00 80 fc 8d 41 3f 00 00 00 a0 ce 46 43 3f
       0.0005357249174267054 0.0005882748519070446
0002a0 00 00 00 40 5c 53 43 3f 00 00 00 80 f9 29 4f 3f
       0.000589771312661469 0.0009510486852377653
0002b0 00 00 00 60 8b 68 0c 3f 00 00 00 60 25 bb 0a bf
       5.4184678447199985e-05 -5.0985410780413076e-05
0002c0 00 00 00 60 3f 20 44 bf 00 00 00 60 8a 33 31 bf
       -0.0006141957710497081 -0.0002624714688863605
0002d0 00 00 00 00 13 0d 34 bf 00 00 00 20 71 f3 34 bf
       -0.0003059550654143095 -0.00031968604889698327
0002e0 00 00 00 00 ea c0 41 bf 00 00 00 60 ec ab 40 bf
       -0.00054179597645998 -0.000508776109199971
0002f0 00 00 00 00 5e ad 45 bf 00 00 00 60 0b c4 49 bf
       -0.0006615361198782921 -0.0007863097707740963
000300 00 00 00 c0 fb 33 4b bf 00 00 00 40 bf 54 36 bf
       -0.0008301715133711696 -0.0003407446783967316
000310 00 00 00 60 82 49 4d bf 00 00 00 80 17 3d 56 bf
       -0.0008937727543525398 -0.0013573388569056988
000320 00 00 00 c0 d6 bc 48 bf 00 00 00 c0 30 75 31 bf
       -0.0007549332221969962 -0.00026638450799509883
000330 00 00 00 00 d4 48 4b bf 00 00 00 60 94 47 49 bf
       -0.0008326563984155655 -0.0007714724051766098
000340 00 00 00 c0 18 8d 40 bf 00 00 00 40 b1 79 36 bf
       -0.000505101284943521 -0.0003429467906244099
000350 00 00 00 e0 b5 ca ec 3e 00 00 00 60 23 ca 2c bf
       1.3729018064623233e-05 -0.00021964723418932408
000360 00 00 00 c0 ab dd 3a bf 00 00 00 60 e1 b2 27 3f
       -0.0004099411307834089 0.0001808071247069165
000370 00 00 00 c0 3f 16 08 bf 00 00 00 c0 66 eb 47 3f
       -4.594213532982394e-05 0.0007299663266167045
000380 00 00 00 00 2c 78 18 3f 00 00 00 80 5f a0 38 3f
       9.334343485534191e-05 0.00037576991599053144
000390 00 00 00 20 9c f5 43 3f 00 00 00 00 2d c3 36 3f
       0.0006091129616834223 0.0003473267424851656
0003a0 00 00 00 60 47 f6 00 bf 00 00 00 00 6a b8 42 bf
       -3.235249823774211e-05 -0.0005713002756237984
0003b0 00 00 00 00 57 0b 41 3f 00 00 00 c0 c6 da 44 3f
       0.0005201506428420544 0.0006364317378029227
0003c0 00 00 00 c0 93 0a 46 3f 00 00 00 00 bb a9 40 3f
       0.0006726476131007075 0.0005085146985948086
0003d0 00 00 00 60 c5 a7 09 bf 00 00 00 c0 e0 e3 dd be
       -4.893370714853518e-05 -7.12636665411992e-06
0003e0 00 00 00 a0 d6 41 f1 3e 00 00 00 c0 d9 7d 4e bf
       1.6457730453112163e-05 -0.0009305299026891589
0003f0 00 00 00 40 bd c3 59 bf 00 00 00 40 0b 56 55 bf
       -0.0015725467819720507 -0.0013022527564316988
000400 00 00 00 60 b1 8a 58 bf 00 00 00 40 31 95 5a bf
       -0.001497910707257688 -0.0016224842984229326
000410 00 00 00 40 64 fc 60 bf 00 00 00 c0 ab 03 59 bf
       -0.002073474694043398 -0.001526754116639495
000420 00 00 00 c0 42 ae 26 bf 00 00 00 40 bd 57 1f 3f
       -0.00017304005450569093 0.00011956303205806762
000430 00 00 00 e0 11 7d 31 3f 00 00 00 60 f8 17 3d 3f
       0.00026685415650717914 0.0004439336189534515
000440 00 00 00 00 6c 05 45 3f 00 00 00 40 92 67 3c 3f
       0.0006415154784917831 0.0004334194236434996
000450 00 00 00 00 08 50 3f 3f 00 00 00 40 08 ff 50 3f
       0.0004777926951646805 0.001037366921082139
000460 00 00 00 80 ee fb 43 3f 00 00 00 c0 5c f7 5f 3f
       0.000609866576269269 0.0019510656129568815
000470 00 00 00 40 83 34 63 3f 00 00 00 40 e3 08 62 3f
       0.002344375941902399 0.0022015036083757877
000480 00 00 00 e0 de bb 48 3f 00 00 00 c0 78 1e 4e 3f
       0.0007548177964054048 0.0009191598510369658
000490 00 00 00 60 d8 f7 23 3f 00 00 00 c0 91 3c 06 bf
       0.00015234485908877105 -4.24129466409795e-05
0004a0 00 00 00 60 b0 60 35 bf 00 00 00 40 78 16 12 bf
       -0.00032619768171571195 -6.899937579873949e-05
0004b0 00 00 00 00 7f df d4 3e 00 00 00 e0 9a 9d 34 bf
       4.976518539479002e-06 -0.0003145697701256722
0004c0 00 00 00 60 bc 5b 19 3f 00 00 00 e0 4f 22 25 3f
       9.673440217738971e-05 0.00016123986279126257
0004d0 00 00 00 00 c4 65 43 bf 00 00 00 c0 1c d0 57 bf
       -0.0005919653922319412 -0.0014534264337271452
0004e0 00 00 00 00 98 c9 55 bf 00 00 00 e0 8e 91 4b bf
       -0.0013298019766807556 -0.0008413264877162874
0004f0 00 00 00 c0 6b 42 30 bf 00 00 00 60 4b d6 59 bf
       -0.0002480996190570295 -0.001576970680616796
000500 00 00 00 40 26 a3 51 bf 00 00 00 80 31 d8 41 3f
       -0.0010764955077320337 0.0005445710849016905
000510 00 00 00 c0 9b 5a 4b bf 00 00 00 80 38 a1 37 bf
       -0.0008347759721800685 -0.00036056165117770433
000520 00 00 00 40 38 c9 22 bf 00 00 00 80 23 18 44 3f
       -0.00014332591672427952 0.0006132291164249182
000530 00 00 00 00 7f 1a 34 3f 00 00 00 e0 c9 b6 3b 3f
       0.0003067550715059042 0.0004228823527228087
000540 00 00 00 40 dd c1 52 3f 00 00 00 c0 8a f6 65 3f
       0.0011448536533862352 0.0026810369454324245
000550 00 00 00 c0 c8 54 4e 3f 00 00 00 20 06 64 54 3f
       0.0009256344055756927 0.0012445506872609258
000560 00 00 00 60 a3 f2 30 3f 00 00 00 e0 d5 60 3e 3f
       0.0002586029877420515 0.00046353551442734897
000570 00 00 00 c0 75 2d 35 bf 00 00 00 00 83 85 47 bf
       -0.0003231441951356828 -0.0007178201340138912
000580 00 00 00 00 7d 46 49 bf 00 00 00 c0 40 9e 50 bf
       -0.0007713423110544682 -0.0010142929386347532
000590 00 00 00 00 cb 4f 51 bf 00 00 00 20 61 f7 52 bf
       -0.0010566217824816704 -0.0011576126562431455
0005a0 00 00 00 60 c4 2d f3 3e 00 00 00 c0 6f cc 58 bf
       1.8290307707502507e-05 -0.001513585215434432
0005b0 00 00 00 00 60 e8 55 bf 00 00 00 00 79 52 10 3f
       -0.0013371407985687256 6.226409459486604e-05
0005c0 00 00 00 40 e2 83 41 bf 00 00 00 00 cd f5 15 bf
       -0.0005345206009224057 -8.377135964110494e-05
0005d0 00 00 00 c0 a9 ac 59 3f 00 00 00 00 fa ed 5a 3f
       0.0015670449938625097 0.0016436520963907242
0005e0 00 00 00 00 1d c7 55 3f 00 00 00 e0 66 3d 43 bf
       0.0013292105868458748 -0.0005871536559425294
0005f0 00 00 00 00 62 ed 31 3f 00 00 00 60 b9 46 39 3f
       0.00027354853227734566 0.0003856852126773447
000600 00 00 00 c0 6c 6f 0b bf 00 00 00 00 f0 74 4b 3f
       -5.2328592573758215e-05 0.0008379146456718445
000610 00 00 00 c0 88 a0 28 3f 00 00 00 e0 66 f9 22 bf
       0.00018788976012729108 -0.00014476185606326908
000620 00 00 00 c0 3d 92 4f 3f 00 00 00 e0 9a 2d 45 3f
       0.0009634782327339053 0.0006463056779466569
000630 00 00 00 80 e3 1a 3a bf 00 00 00 60 ad 3d 0f bf
       -0.0003983312053605914 -5.958733891020529e-05
000640 00 00 00 c0 7b 0f 29 3f 00 00 00 00 ed f6 4e bf
       0.0001911963045131415 -0.0009449631907045841
000650 00 00 00 c0 d3 06 48 bf 00 00 00 60 05 f8 49 bf
       -0.0007332357345148921 -0.000792505859863013
000660 00 00 00 00 13 88 41 bf 00 00 00 40 80 4a 40 bf
       -0.0005350201390683651 -0.000497162458486855
000670 00 00 00 60 2a d4 53 bf 00 00 00 00 fa 17 55 bf
       -0.0012102521723136306 -0.0012874547392129898
000680 00 00 00 c0 eb ae 16 bf 00 00 00 40 fa ce 1c 3f
       -8.652986434753984e-05 0.00010989572911057621
000690 00 00 00 00 2f c4 40 3f 00 00 00 c0 1c 91 56 3f
       0.0005116681568324566 0.0013773709069937468
0006a0 00 00 00 40 c9 e6 49 3f 00 00 00 60 22 15 24 3f
       0.0007904513040557504 0.0001532177411718294
0006b0 00 00 00 c0 4d 46 49 3f 00 00 00 c0 a6 90 45 bf
       0.0007713203085586429 -0.0006581129273399711
0006c0 00 00 00 00 58 63 43 bf 00 00 00 80 76 11 05 3f
       -0.0005916766822338104 4.018442996311933e-05
0006d0 00 00 00 00 bb 33 5c bf 00 00 00 00 e2 0d 23 bf
       -0.0017213178798556328 -0.00014537223614752293
0006e0 00 00 00 c0 53 77 42 3f 00 00 00 00 18 14 4d 3f
       0.000563541310839355 0.000887405127286911
0006f0 00 00 00 60 fd 3a 1a bf 00 00 00 c0 67 52 45 bf
       -0.00010006114462157711 -0.0006506926147267222
000700 00 00 00 c0 17 de 50 bf 00 00 00 c0 9c 1d 49 bf
       -0.001029513543471694 -0.0007664695149287581
000710 00 00 00 e0 7d 3a d3 be 00 00 00 40 a5 be 4a 3f
       -4.584427642839728e-06 0.000816183746792376
000720 00 00 00 00 6b 1c 47 3f 00 00 00 e0 7f ee 5f 3f
       0.0007052919827401638 0.0019489525584504008
000730 00 00 00 c0 47 c8 58 3f 00 00 00 00 49 bf 51 3f
       0.0015125942882150412 0.0010832035914063454
000740 00 00 00 40 4a e0 45 bf 00 00 00 c0 29 0f 38 bf
       -0.0006676065968349576 -0.0003671147278510034
000750 00 00 00 60 c1 cc 3a bf 00 00 00 60 c5 33 42 bf
       -0.00040893288678489625 -0.0005554879899136722
000760 00 00 00 c0 b0 01 58 bf 00 00 00 c0 18 cf 54 bf
       -0.0014652467798441648 -0.0012700788211077452
000770 00 00 00 40 fe 54 35 bf 00 00 00 00 d8 dc 37 bf
       -0.0003255005576647818 -0.0003641154617071152
000780 00 00 00 c0 99 00 47 3f 00 00 00 e0 5a 12 1a 3f
       0.0007019758922979236 9.945563942892477e-05
000790 00 00 00 80 9e 8d 58 3f 00 00 00 00 b7 f7 24 3f
       0.0014986083842813969 0.00015997036825865507
0007a0 00 00 00 60 e4 61 51 3f 00 00 00 c0 c3 a7 5c 3f
       0.0010609369492158294 0.001748982584103942
0007b0 00 00 00 00 b6 d8 14 3f 00 00 00 80 14 0c 50 3f
       7.952318992465734e-05 0.0009794426150619984
0007c0 00 00 00 00 ed bc 1a 3f 00 00 00 80 7e b5 14 bf
       0.00010199734242632985 -7.899841875769198e-05
0007d0 00 00 00 60 76 4e 29 bf 00 00 00 40 6f af 25 bf
       -0.0001930732250912115 -0.00016544564277864993
0007e0 00 00 00 60 c1 f4 07 bf 00 00 00 c0 2e 36 4b 3f
       -4.5692588173551485e-05 0.0008304336806759238
0007f0 00 00 00 c0 d0 76 43 3f 00 00 00 80 72 5e 44 bf
       0.0005939978873357177 -0.0006216105539351702
