histograms/histogram_linear1.weight_Hyper__Walker2DBulletEnv-v0_seed2_scale1.npy (npy, 822072 bytes, 1 tensors)

array f8 [102743]
0	0x0000000000000000	0.0
1	0x3efbe35d80000000	2.6596208044793457e-05
2	0xbee04aa800000000	-7.768452633172274e-06
3	0xbf1db29700000000	-0.00011328741675242782
4	0xbf0c74d240000000	-5.427614814834669e-05
5	0xbed914b800000000	-5.979760317131877e-06
6	0x3eefc90f60000000	1.5156455447140615e-05
7	0x3ef0dbb000000000	1.6077188774943352e-05
8	0x3eefd4bea0000000	1.5178219655354042e-05
9	0x3ed74e75e0000000	5.556699306907831e-06
10	0xbed1d5d780000000	-4.252271537552588e-06
11	0xbef7866040000000	-2.2435098799178377e-05
12	0xbf10ccdde0000000	-6.40879079583101e-05
13	0xbf0d2f1360000000	-5.566385152633302e-05
14	0xbf20046640000000	-0.00012220142525620759
15	0xbf2e8f1300000000	-0.00023314577993005514
16	0xbf2dda0de0000000	-0.00022775096294935793
17	0xbf30c45780000000	-0.0002558435080572963
18	0xbf32868580000000	-0.00028267630841583014
19	0xbf33cfd2c0000000	-0.0003023042227141559
20	0xbf32662740000000	-0.00028074701549485326
21	0xbf31df4c40000000	-0.0002727090031839907
22	0xbf35982ce0000000	-0.00032950492459349334
23	0xbf3802e640000000	-0.0003663837560452521
24	0xbf3ba3ac60000000	-0.0004217429959680885
25	0xbf33bc1d20000000	-0.00030112944659776986
26	0xbf30db9520000000	-0.00025722876307554543
27	0xbf271d0d20000000	-0.00017634186951909214
28	0xbf28ae6400000000	-0.00018830271437764168
29	0xbf1c25d7c0000000	-0.00010737542470451444
30	0xbf22f86400000000	-0.00014473171904683113
31	0xbf19f55ba0000000	-9.902354941004887e-05
32	0xbf08065700000000	-4.582360270433128e-05
33	0x3f130513c0000000	7.255490345414728e-05
34	0x3f080de4c0000000	4.587988223647699e-05
35	0x3f1c3ac7c0000000	0.00010768741776701063
36	0x3f21968660000000	0.0001341856986982748
37	0x3f280b1f60000000	0.00018343694682698697
38	0x3f25517400000000	0.00016264477744698524
39	0x3f26695760000000	0.00017098609532695264
40	0x3f26ff6360000000	0.00017545784066896886
41	0x3f298475e0000000	0.00019468249229248613
42	0x3f2a5149e0000000	0.00020078684610780329
43	0x3f23b551e0000000	0.00015036224795039743
44	0x3f23c2ac00000000	0.00015076017007231712
45	0x3f260b96c0000000	0.00016819205484353006
46	0x3f26a241a0000000	0.00017268229566980153
47	0x3f220de020000000	0.0001377426233375445
48	0x3f1c7234c0000000	0.00010851332626771182
49	0x3f1df36720000000	0.00011425320553826168
50	0x3f17693f20000000	8.930633339332417e-05
51	0x3f1f916de0000000	0.00012042267917422578
52	0x3f048017a0000000	3.910133455065079e-05
53	0x3f15bd1060000000	8.292591519420967e-05
54	0x3f11c247a0000000	6.774484791094437e-05
55	0x3f07f13b00000000	4.566632560454309e-05
56	0x3f0bebffe0000000	5.3256746468832716e-05
57	0xbf062c8a20000000	-4.2293515434721485e-05
58	0xbf05e464e0000000	-4.1755989514058456e-05
59	0xbee6b3f3e0000000	-1.082560538634425e-05
60	0xbee6237160000000	-1.0556434972386342e-05
61	0x3efca735c0000000	2.7325786504661664e-05
62	0x3eefddc760000000	1.5195047126326244e-05
63	0x3f05358320000000	4.04530183004681e-05
64	0x3f02ca6620000000	3.584026489988901e-05
65	0x3ee7ca85e0000000	1.1344483027642127e-05
66	0x3f0b3558c0000000	5.18958768225275e-05
67	0x3f007dc740000000	3.145469963783398e-05
68	0x3ef4359f80000000	1.9273247744422406e-05
69	0x3ed1cd9100000000	4.244564479449764e-06
70	0xbee1309de0000000	-8.19678734842455e-06
71	0x3f001e5560000000	3.074358028243296e-05
72	0xbefa84ae00000000	-2.528980257920921e-05
73	0x3f01495d80000000	3.2971540349535644e-05
74	0xbeeeefc720000000	-1.4751735761819873e-05
75	0xbebcb4f300000000	-1.7110605767811649e-06
76	0x3ef775d300000000	2.237343869637698e-05
77	0xbef909d060000000	-2.3878417778178118e-05
78	0x3f0059b740000000	3.118601307505742e-05
79	0xbefcc23b00000000	-2.7426445740275085e-05
80	0x3f001e95a0000000	3.0745450203539804e-05
81	0xbee49cc9a0000000	-9.828782822296489e-06
82	0x3f0b4d3260000000	5.207357389735989e-05
83	0x3efacdb320000000	2.5561823349562474e-05
84	0x3f1291a440000000	7.083477976266295e-05
85	0x3f191adc00000000	9.5767667517066e-05
86	0x3f14e58e60000000	7.971459854161367e-05
87	0x3f1abba960000000	0.00010197850497206673
88	0x3f0bafc100000000	5.280788172967732e-05
89	0x3f1f11c6a0000000	0.00011852049647131935
90	0x3f20ccf9a0000000	0.0001281790464418009
91	0x3f192db560000000	9.604854130884632e-05
92	0x3f07804100000000	4.482458462007344e-05
93	0x3f06b579a0000000	4.331376476329751e-05
94	0x3ef8685760000000	2.3276885258383118e-05
95	0x3f07b7ab00000000	4.523745155893266e-05
96	0x3f0f97a1e0000000	6.025755646987818e-05
97	0x3f07d7dc60000000	4.5477307139663026e-05
98	0x3f096b5b80000000	4.848359094467014e-05
99	0x3f0790a200000000	4.494661698117852e-05
100	0x3eea8a2060000000	1.2655046703002881e-05
101	0x3ef4abbd60000000	1.971326673810836e-05
102	0xbef80d3e40000000	-2.293751822435297e-05
103	0x3ee026c180000000	7.701582944719121e-06
104	0x3ecf9a9aa0000000	3.767481075556134e-06
105	0x3ef2368040000000	1.736916965455748e-05
106	0x3f0b0c91e0000000	5.159206557436846e-05
107	0x3ef2881000000000	1.7673010006546974e-05
108	0x3ed514b2a0000000	5.026066446589539e-06
109	0xbee297af00000000	-8.865601557772607e-06
110	0x3ed5887860000000	5.133887952979421e-06
111	0xbef232bce0000000	-1.7355150703224353e-05
112	0xbeef2929c0000000	-1.4858624126645736e-05
113	0x3ee9637a40000000	1.2106220310670324e-05
114	0x3f11a62900000000	6.732583278790116e-05
115	0x3f040121a0000000	3.815540185314603e-05
116	0x3f0bde6bc0000000	5.31555779161863e-05
117	0x3f1285b0a0000000	7.065668614814058e-05
118	0xbeddb9ec60000000	-7.087293397489702e-06
119	0x3f0e8280c0000000	5.81927815801464e-05
120	0x3f1bfae120000000	0.00010673522047000006
121	0x3f0fa05060000000	6.032223973306827e-05
122	0x3f150383c0000000	8.016101492103189e-05
123	0x3f132910c0000000	7.309117063414305e-05
124	0x3f0990b900000000	4.876198363490403e-05
125	0x3f0aeb6700000000	5.134494858793914e-05
126	0x3ef57245a0000000	2.0452856915653683e-05
127	0xbee328c940000000	-9.135876098298468e-06
128	0xbf03c65500000000	-3.771731280721724e-05
129	0xbf0227d060000000	-3.462891254457645e-05
130	0xbf139dade0000000	-7.482885121135041e-05
131	0xbf06a2b300000000	-4.3173873564228415e-05
132	0xbf223ee7e0000000	-0.00013920383935328573
133	0xbf12a32c40000000	-7.109601574484259e-05
134	0xbf1132fb40000000	-6.560953625012189e-05
135	0xbf0343a840000000	-3.674370964290574e-05
136	0x3ee1096720000000	8.123745828925166e-06
137	0xbf0e546b20000000	-5.784942550235428e-05
138	0xbf05897a20000000	-4.107860513613559e-05
139	0xbf12bc1e00000000	-7.146771531552076e-05
140	0xbf0fc167c0000000	-6.0568789194803685e-05
141	0xbee1b55480000000	-8.443985279882327e-06
142	0x3eec9b02a0000000	1.3640169527207036e-05
143	0xbf02c2ee40000000	-3.578462201403454e-05
144	0xbefbe042a0000000	-2.658464109117631e-05
145	0xbf01068000000000	-3.2473355531692505e-05
146	0x3f0184ec40000000	3.341527917655185e-05
147	0xbef73c0640000000	-2.2158117644721642e-05
148	0x3ee6f23f20000000	1.0941636901407037e-05
149	0xbef156bd60000000	-1.6535594113520347e-05
150	0x3f03e6c280000000	3.7958918255753815e-05
151	0x3f1db2b980000000	0.00011328942491672933
152	0xbf0589e1e0000000	-4.108162465854548e-05
153	0x3ed7c5dec0000000	5.6679082263144664e-06
154	0xbebf4b9520000000	-1.8653419147085515e-06
155	0xbefacb4f00000000	-2.555291575845331e-05
156	0xbef221e6a0000000	-1.7292428310611285e-05
157	0xbf0b41c320000000	-5.198837970965542e-05
158	0x3ee2f99800000000	9.047973435372114e-06
159	0xbf115a8400000000	-6.619864143431187e-05
160	0xbefce155e0000000	-2.7542320822249167e-05
161	0xbeffc73aa0000000	-3.0306089684017934e-05
162	0x3f006750c0000000	3.1287338060792536e-05
163	0xbf18b97aa0000000	-9.431658691028133e-05
164	0xbf0bb49f00000000	-5.284414510242641e-05
165	0x3ecf424920000000	3.726354634636664e-06
166	0xbef2d0c360000000	-1.794384115783032e-05
167	0xbee2efe0a0000000	-9.029875400301535e-06
168	0xbee0db26a0000000	-8.037594852794427e-06
169	0x3f03dc5dc0000000	3.788148023886606e-05
170	0x3f11c9e440000000	6.785827281419188e-05
171	0x3f023f68a0000000	3.480470695649274e-05
172	0x3ef5d0c960000000	2.080495141854044e-05
173	0x3eeebf7c60000000	1.4661784916825127e-05
174	0x3ef07ac780000000	1.5716177586000413e-05
175	0xbf07342b00000000	-4.425770021043718e-05
176	0xbf0262ab40000000	-3.506741632008925e-05
177	0xbf10180780000000	-6.13932206761092e-05
178	0xbf026b3f00000000	-3.5131321055814624e-05
179	0xbf10fbd3a0000000	-6.478766590589657e-05
180	0xbf157b16c0000000	-8.194280962925404e-05
181	0xbeda9d3980000000	-6.345309884636663e-06
182	0x3f0c138d80000000	5.355144094210118e-05
183	0x3f00bdea80000000	3.193256270606071e-05
184	0xbedbd35500000000	-6.634119927184656e-06
185	0x3f03e6a540000000	3.7958066968712956e-05
186	0xbf14a2bc20000000	-7.871888374211267e-05
187	0xbf02bb5de0000000	-3.572826608433388e-05
188	0x3f083d70c0000000	4.623413406079635e-05
189	0x3ef83eeea0000000	2.3122624043026008e-05
190	0xbf16b5f700000000	-8.663482731208205e-05
191	0xbee3ed2420000000	-9.501615750195924e-06
192	0xbeec191fc0000000	-1.3398237570072524e-05
193	0xbef88c9e40000000	-2.3412027076119557e-05
194	0xbf05eb51e0000000	-4.1807590605458245e-05
195	0xbf17d36360000000	-9.088796650758013e-05
196	0xbf1737fca0000000	-8.857230568537489e-05
197	0xbf21c6c7a0000000	-0.00013562380627263337
198	0xbee21f9ba0000000	-8.641943168186117e-06
199	0xbf139e8ba0000000	-7.484175876015797e-05
200	0xbf03f337c0000000	-3.805173764703795e-05
201	0xbf0aef9120000000	-5.137597690918483e-05
202	0xbefb15de60000000	-2.5830673621385358e-05
203	0xbf21148d00000000	-0.0001303121680393815
204	0xbec723ab00000000	-2.758422851911746e-06
205	0xbf1349a060000000	-7.357636786764488e-05
206	0x3f168f9000000000	8.606258779764175e-05
207	0x3f0732b580000000	4.424682992976159e-05
208	0x3efea46260000000	2.9222608645795844e-05
209	0x3ed6c7c560000000	5.431259978649905e-06
210	0x3f13d525a0000000	7.565538544440642e-05
211	0x3f105427a0000000	6.22891602688469e-05
212	0x3f1cd974a0000000	0.00011005186388501897
213	0x3f1d4d86c0000000	0.00011178145359735936
214	0xbf0e6b7a40000000	-5.8021229051519185e-05
215	0xbed8aba4a0000000	-5.881900960957864e-06
216	0x3f09bfe7a0000000	4.911351788905449e-05
217	0x3f07885f80000000	4.488507693167776e-05
218	0x3ef469c1e0000000	1.94674630620284e-05
219	0x3f03f03bc0000000	3.802950232056901e-05
220	0x3f20b32300000000	0.0001274090027436614
221	0xbef908f440000000	-2.3875214537838474e-05
222	0x3eec33a660000000	1.3447645869746339e-05
223	0x3ef0c3a0e0000000	1.5987561710062437e-05
224	0xbf13d06240000000	-7.558440847788006e-05
225	0x3effd08b60000000	3.0340792363858782e-05
226	0x3f0cb418c0000000	5.474758654600009e-05
227	0x3f0b032de0000000	5.1522099965950474e-05
228	0x3f0d30e580000000	5.5677417549304664e-05
229	0xbf0e59e860000000	-5.7890323660103604e-05
230	0x3f0a723840000000	5.044206773163751e-05
231	0x3ec3de4e40000000	2.3684956431679893e-06
232	0xbf111aef00000000	-6.525119533762336e-05
233	0xbf11861ec0000000	-6.684839900117368e-05
234	0xbf0d04fa40000000	-5.535019590752199e-05
235	0xbf01b85060000000	-3.3798172808019444e-05
236	0x3f225915a0000000	0.0001399840257363394
237	0x3eafa6bc60000000	9.432826004740491e-07
238	0x3ed98b2d20000000	6.090082479204284e-06
239	0xbf25457960000000	-0.00016228777531068772
240	0x3ee8aca380000000	1.1765656381612644e-05
241	0xbf1b7f17c0000000	-0.00010489065607544035
242	0xbef002d1a0000000	-1.526929008832667e-05
243	0xbf06854440000000	-4.295458347769454e-05
244	0xbf10605460000000	-6.247057899599895e-05
245	0xbf1a4ba040000000	-0.00010030904377344996
246	0x3ee7b51920000000	1.1304576219117735e-05
247	0x3f13436640000000	7.34835775801912e-05
248	0xbf057c2700000000	-4.097932833246887e-05
249	0xbefe1b3920000000	-2.8711643608403392e-05
250	0x3eedccc800000000	1.4209712389856577e-05
251	0x3ef8a69460000000	2.3508740923716687e-05
252	0x3f10dc42a0000000	6.431728979805484e-05
253	0x3f10e1c500000000	6.439938442781568e-05
254	0xbf141936e0000000	-7.666966848773882e-05
255	0xbf096286a0000000	-4.841779082198627e-05
