histograms/histogram_linear1.weight_Hyper__Walker2DBulletEnv-v0_seed1_scale1.npy (npy, 758072 bytes, 1 tensors)

array f8 [94743]
0	0x0000000000000000	0.0
1	0x3ef67fdd00000000	2.1457162802107632e-05
2	0xbee3f3f7e0000000	-9.514332305116113e-06
3	0xbf1b5b99c0000000	-0.00010436178126838058
4	0x3ed0165780000000	3.835504685412161e-06
5	0x3ef2e18e00000000	1.800639438442886e-05
6	0x3ea1eb9000000000	5.340625648386776e-07
7	0xbee486f7c0000000	-9.788140232558362e-06
8	0xbeff14cbc0000000	-2.9641374567290768e-05
9	0xbf0dcb5f20000000	-5.6828346714610234e-05
10	0xbf150c14c0000000	-8.028866432141513e-05
11	0xbf1ec10cc0000000	-0.00011731758422683924
12	0xbf12903900000000	-7.081363582983613e-05
13	0xbf0b400de0000000	-5.197565405978821e-05
14	0xbf1c4b3240000000	-0.00010793203546199948
15	0xbf2166a000000000	-0.00013275817036628723
16	0xbf22e32c40000000	-0.00014409938012249768
17	0xbf2531d300000000	-0.00016170216258615255
18	0xbf2c19d300000000	-0.00021439266856759787
19	0xbf2ee8f840000000	-0.00023582487483508885
20	0xbf308ccc60000000	-0.00025253286003135145
21	0xbf278c70c0000000	-0.00017966152518056333
22	0xbf264da920000000	-0.00017016114725265652
23	0xbf28dd9d20000000	-0.00018971007375512272
24	0xbf2ecaf1c0000000	-0.00023493004846386611
25	0xbf332b23c0000000	-0.0002924883156083524
26	0xbf30f81f60000000	-0.0002589298819657415
27	0xbf28a4f640000000	-0.00018802171689458191
28	0xbf25fe2760000000	-0.00016779165889602154
29	0xbf23acc680000000	-0.00015010760398581624
30	0xbf2346dca0000000	-0.00014707034279126674
31	0xbf1ba7e460000000	-0.00010549861326580867
32	0xbef5e8cca0000000	-2.089440567942802e-05
33	0xbf05cce7a0000000	-4.15809809055645e-05
34	0x3ef4338200000000	1.9265367882326245e-05
35	0xbeebd10a40000000	-1.326397068623919e-05
36	0x3f1bd368c0000000	0.00010614706843625754
37	0x3f1b06a4c0000000	0.00010309582285117358
38	0x3f1ce89920000000	0.00011027750588255003
39	0x3f229c0c00000000	0.0001419796608388424
40	0x3f246a6340000000	0.00015575849101878703
41	0x3f258a4780000000	0.00016433832934126258
42	0x3f27885b60000000	0.0001795398275135085
43	0x3f22258a60000000	0.00013844789646100253
44	0x3f21984200000000	0.00013423734344542027
45	0x3f26cf7c20000000	0.0001740302104735747
46	0x3f1e9944c0000000	0.00011672479740809649
47	0x3f21f03da0000000	0.00013685943849850446
48	0x3f24ac19e0000000	0.00015771690232213587
49	0x3f23b63140000000	0.00015038825222291052
50	0x3f201ce740000000	0.00012293169857002795
51	0x3f09ea0060000000	4.94271625939291e-05
52	0x3f200c3740000000	0.00012243437231518328
53	0x3f1f93ab20000000	0.00012045604671584442
54	0x3f18ecc5e0000000	9.50809262576513e-05
55	0x3f0f6a9560000000	5.99219165451359e-05
56	0x3f109f2400000000	6.340653635561466e-05
57	0x3f170f9860000000	8.79704239196144e-05
58	0x3ee72673a0000000	1.1038876436941791e-05
59	0xbee9e3f000000000	-1.2345495633780956e-05
60	0x3f048bce00000000	3.91885987482965e-05
61	0x3f193199a0000000	9.610653069103137e-05
62	0x3f0c3b1300000000	5.3845898946747184e-05
63	0xbf031c8da0000000	-3.64523621101398e-05
64	0xbf054e1a60000000	-4.0636234189150855e-05
65	0xbf15792a80000000	-8.191415690816939e-05
66	0xbed500e760000000	-5.007631898479303e-06
67	0xbf0c1fca40000000	-5.364261596696451e-05
68	0xbf1f22d1e0000000	-0.00011877447104780003
69	0xbf159963e0000000	-8.239433373091742e-05
70	0xbf183dc860000000	-9.247336856788024e-05
71	0xbf1cbba4c0000000	-0.000109607630292885
72	0xbf0f7e88a0000000	-6.0070557083236054e-05
73	0xbf22dfe300000000	-0.00014400144573301077
74	0xbf1fbfcde0000000	-0.00012111372052459046
75	0xbf09c8e240000000	-4.91804166813381e-05
76	0xbf0a0bffa0000000	-4.9680460506351665e-05
77	0xbf1ec4b120000000	-0.00011737185559468344
78	0xbf03bbc4c0000000	-3.763860877370462e-05
79	0xbf204f5800000000	-0.0001244349405169487
80	0xbefe7c5fc0000000	-2.9073558835079893e-05
81	0x3efccd66c0000000	2.7468060579849407e-05
82	0xbf16b12d60000000	-8.656348654767498e-05
83	0xbf07c6ccc0000000	-4.5350192522164434e-05
84	0xbf02148720000000	-3.448521965765394e-05
85	0x3f00b3bba0000000	3.185669265803881e-05
86	0x3ef2439d80000000	1.7418024071957916e-05
87	0x3ef8eb0f00000000	2.3763845092616975e-05
88	0x3f1e2d7180000000	0.00011511807679198682
89	0x3ef84da500000000	2.3177432012744248e-05
90	0x3f03ca3680000000	3.7746227462776005e-05
91	0x3f164c63a0000000	8.506162703270093e-05
92	0x3f20b37240000000	0.0001274182286579162
93	0x3f15a719a0000000	8.259862806880847e-05
94	0x3ef507da00000000	2.0056409994140267e-05
95	0x3f00351100000000	3.091295366175473e-05
96	0x3f0e3103e0000000	5.758565021096729e-05
97	0x3f10f60480000000	6.470110383816063e-05
98	0xbf1553ab60000000	-8.13554142951034e-05
99	0xbeefb190c0000000	-1.5112693290575407e-05
100	0x3ece733000000000	3.6299170460551977e-06
101	0x3f0b80fb20000000	5.24593961017672e-05
102	0x3f03b4ca60000000	3.758661841857247e-05
103	0x3f0aafb920000000	5.090030390419997e-05
104	0x3f01a3aec0000000	3.36444572894834e-05
105	0x3f03c267a0000000	3.76880525436718e-05
106	0xbef05c0580000000	-1.5601595805492252e-05
107	0x3ecc8389e0000000	3.3991125292232027e-06
108	0xbf114c22a0000000	-6.598435720661655e-05
109	0xbef1612f80000000	-1.6574507753830403e-05
110	0x3eabdfdf00000000	8.307247298944276e-07
111	0xbf0d8abca0000000	-5.634678018395789e-05
112	0xbf1d000640000000	-0.00011062658450100571
113	0x3f07c57c60000000	4.534040272119455e-05
114	0x3ef9aa6760000000	2.4476661565131508e-05
115	0xbf100cf3a0000000	-6.122815102571622e-05
116	0xbefbbe7040000000	-2.6458645152160898e-05
117	0xbeded00cc0000000	-7.346318852796685e-06
118	0xbf102218a0000000	-6.154322909424081e-05
119	0x3ee1a06540000000	8.404991604038514e-06
120	0xbf24dc1ea0000000	-0.00015914796676952392
121	0xbf16cbb300000000	-8.695869473740458e-05
122	0x3e9afa9bc0000000	4.020175197183562e-07
123	0xbf1d0a6520000000	-0.00011078111856477335
124	0xbf16db8de0000000	-8.719495235709473e-05
125	0xbef8cfc160000000	-2.36621326621389e-05
126	0x3ef78e1700000000	2.2463835193775594e-05
127	0x3eef2d8520000000	1.4866739547869656e-05
128	0x3edb752fc0000000	6.546440090460237e-06
129	0xbf0677d4c0000000	-4.2854480852838606e-05
130	0xbeec9057e0000000	-1.3620300705952104e-05
131	0xbef699c920000000	-2.1553731130552478e-05
132	0xbf10d32d60000000	-6.41819424345158e-05
133	0x3f15c14980000000	8.298884495161474e-05
134	0x3f09bc7520000000	4.9087833758676425e-05
135	0x3f0d3806a0000000	5.573053567786701e-05
136	0x3f12ab2680000000	7.121489034034312e-05
137	0x3eb0135460000000	9.581748372511356e-07
138	0x3ea367f800000000	5.783476808574051e-07
139	0x3f01194f00000000	3.261349047534168e-05
140	0x3ed1659140000000	4.147707841184456e-06
141	0xbeff6ee4c0000000	-2.997701449203305e-05
142	0xbf00a146e0000000	-3.171918433508836e-05
143	0xbf14854580000000	-7.827984518371522e-05
144	0xbf1ca041c0000000	-0.00010919953638222069
145	0xbf1a4aff00000000	-0.00010029965778812766
146	0xbef2b6c240000000	-1.784696723916568e-05
147	0xbf104b6d40000000	-6.215910252649337e-05
148	0xbefe756700000000	-2.9047587304376066e-05
149	0xbf0785d460000000	-4.486612670007162e-05
150	0xbf18675920000000	-9.309274173574522e-05
151	0xbf10d76900000000	-6.424501771107316e-05
152	0xbefc1af400000000	-2.680328907445073e-05
153	0xbf1ee34980000000	-0.00011782775982283056
154	0xbf2132ec40000000	-0.00013121732627041638
155	0xbf077b46a0000000	-4.478749542613514e-05
156	0xbf095dbea0000000	-4.838216773350723e-05
157	0xbefe5901e0000000	-2.8941807613591664e-05
158	0xbf05cfd400000000	-4.160276148468256e-05
159	0xbef5317f60000000	-2.0211553419358097e-05
160	0x3eff429120000000	2.9811884814989753e-05
161	0x3f17ec02c0000000	9.125487122219056e-05
162	0x3ef4705100000000	1.9491897546686232e-05
163	0xbf066c00e0000000	-4.276635809219442e-05
164	0xbf1663bf20000000	-8.5409679741133e-05
165	0xbf11759bc0000000	-6.660235521849245e-05
166	0x3f066fb320000000	4.279389759176411e-05
167	0x3ed75b88c0000000	5.568875167227816e-06
168	0xbede20e1e0000000	-7.183181423897622e-06
169	0xbf085a1ca0000000	-4.644775253836997e-05
170	0xbef8f504c0000000	-2.3800948838470504e-05
171	0x3ee6c02860000000	1.0848339115909766e-05
172	0xbf169e5da0000000	-8.628317300463095e-05
173	0x3eea6a6f00000000	1.2596014130394906e-05
174	0x3f1156fca0000000	6.614605808863416e-05
175	0x3ee54a4a60000000	1.015195721265627e-05
176	0x3eff8202c0000000	3.0048231565160677e-05
177	0x3ee442e040000000	9.661309377406724e-06
178	0xbf002c7ca0000000	-3.084903073613532e-05
179	0x3f05c83240000000	4.1545899875927716e-05
180	0xbef2091f40000000	-1.7200120055349544e-05
181	0xbf03261bc0000000	-3.652355371741578e-05
182	0xbf1d28a300000000	-0.0001112317549996078
183	0xbf1a094fa0000000	-9.932087414199486e-05
184	0xbf13592ca0000000	-7.38080489099957e-05
185	0xbef60e90a0000000	-2.103509359585587e-05
186	0x3ebf5beea0000000	1.869148604782822e-06
187	0xbf1c295760000000	-0.00010742755694082007
188	0xbf05ff6960000000	-4.1957286157412454e-05
189	0x3f20fc8820000000	0.0001295963447773829
190	0x3f0e64dec0000000	5.797199992230162e-05
191	0x3f0dda4700000000	5.693940329365432e-05
192	0x3f0215c7a0000000	3.4494547435315326e-05
193	0x3f14cae260000000	7.931715663289651e-05
194	0x3f023ba440000000	3.4776639949996024e-05
195	0xbf032a5fc0000000	-3.655533510027453e-05
196	0x3f1a9b5d20000000	0.00010149722947971895
197	0x3f09f0c980000000	4.947771958541125e-05
198	0x3eee20bb00000000	1.4366079994942993e-05
199	0x3f0cca7a40000000	5.491433694260195e-05
200	0x3ef2d491c0000000	1.795802018023096e-05
201	0x3ef0242940000000	1.53934997797478e-05
202	0x3f1010df20000000	6.128656241344288e-05
203	0x3f0ccc4de0000000	5.492794662131928e-05
204	0xbf0a0a48a0000000	-4.966768392478116e-05
205	0xbed3442f40000000	-4.593454832502175e-06
206	0xbed13caba0000000	-4.109619567316258e-06
207	0xbf05136780000000	-4.0198894566856325e-05
208	0xbf0ecf7580000000	-5.87661488680169e-05
209	0x3efdfe58c0000000	2.8604070394067094e-05
210	0x3f121e1d20000000	6.911328091518953e-05
211	0x3f2393a6a0000000	0.00014935883518774062
212	0x3f22f82660000000	0.00014472454495262355
213	0xbef57463e0000000	-2.0460747691686265e-05
214	0xbf12f43b80000000	-7.230389746837318e-05
215	0xbf16579080000000	-8.522815187461674e-05
216	0x3ec072a120000000	1.9607271042332286e-06
217	0x3ef4c2e0c0000000	1.9799463188974187e-05
218	0x3efce5f180000000	2.755948662525043e-05
219	0x3ef1410d20000000	1.6454798242193647e-05
220	0x3f0abbbfe0000000	5.098990732221864e-05
221	0x3f0a641860000000	5.0336831918684766e-05
222	0xbeec488840000000	-1.3486542229657061e-05
223	0x3effdf06a0000000	3.0394739951589145e-05
224	0xbf126219e0000000	-7.01263707014732e-05
225	0xbf2120a6a0000000	-0.00013067277905065566
226	0x3eeeeb1360000000	1.47429773278418e-05
227	0x3f04840b40000000	3.9130776713136584e-05
228	0x3edb4535e0000000	6.501758889498888e-06
229	0x3f06e12d60000000	4.3639371142489836e-05
230	0xbec4f697a0000000	-2.4990142719616415e-06
231	0xbedb39c040000000	-6.491086423920933e-06
232	0xbf15a02f40000000	-8.249557868111879e-05
233	0xbf1d7dc8a0000000	-0.00011250054376432672
234	0xbf00d49080000000	-3.210130671504885e-05
235	0xbef5483d00000000	-2.0296269212849438e-05
236	0xbf01ceb300000000	-3.3964955946430564e-05
237	0x3ede306a40000000	7.1976473918766715e-06
238	0x3edd81d100000000	7.035039743641391e-06
239	0xbeffaea060000000	-3.0214438083930872e-05
240	0xbedffd4ec0000000	-7.626887054357212e-06
241	0xbf0c219a40000000	-5.365612014429644e-05
242	0xbee9154920000000	-1.1960576557612512e-05
243	0xbecbdf9180000000	-3.3227579478989355e-06
244	0xbefb8f09c0000000	-2.628206493682228e-05
245	0x3ef6a6c600000000	2.1602114429697394e-05
246	0x3f00c586a0000000	3.198926060576923e-05
247	0xbf033acac0000000	-3.6677658499684185e-05
248	0xbf06d1bbe0000000	-4.352430914877914e-05
249	0x3f176475a0000000	8.923499990487471e-05
250	0x3f0a9e4840000000	5.0770358939189464e-05
251	0x3f240a5760000000	0.00015289608563762158
252	0x3f17c2cde0000000	9.0640845883172e-05
253	0xbef4b2db00000000	-1.9739774870686233e-05
254	0xbf14f4fa60000000	-7.994440238690004e-05
255	0xbefb75a400000000	-2.6187452021986246e-05
