histograms/histogram_linear3b.weight_Hyper__Walker2DBulletEnv-v0_seed1_scale1.npy (npy, 758072 bytes, 1 tensors)

array f8 [94743]
00000000: 0000 0000 0000 0000 0000 00c0 1b3b 403f
00000010: 0000 0040 ba5b 4b3f 0000 0040 6466 5a3f
00000020: 0000 0040 0909 563f 0000 0060 dda7 4c3f
00000030: 0000 0080 b696 453f 0000 0060 3157 403f
00000040: 0000 0040 a007 453f 0000 0040 eeac 463f
00000050: 0000 0000 af27 4c3f 0000 0080 0816 513f
00000060: 0000 0000 e86f 493f 0000 0060 c2bc 443f
00000070: 0000 0000 e4bf 503f 0000 00a0 37a3 533f
00000080: 0000 0040 c343 513f 0000 00c0 7dc2 4d3f
00000090: 0000 00c0 a094 503f 0000 0080 8e5c 513f
000000a0: 0000 0040 3fd1 513f 0000 00c0 9072 483f
000000b0: 0000 0000 7002 493f 0000 0060 0f37 473f
000000c0: 0000 0040 3bfc 4a3f 0000 0060 d926 473f
000000d0: 0000 0000 1a35 453f 0000 0040 4b4c 423f
000000e0: 0000 0080 b0fa 3f3f 0000 00c0 9967 3e3f
000000f0: 0000 0060 4f90 343f 0000 00c0 6795 313f
00000100: 0000 0040 9390 123f 0000 0060 ac39 093f
00000110: 0000 0000 828f 15bf 0000 00c0 fe44 1bbf
00000120: 0000 0060 07f8 38bf 0000 0080 cda3 30bf
00000130: 0000 0060 533c 36bf 0000 0040 fb4f 36bf
00000140: 0000 00c0 f910 3abf 0000 0080 869a 40bf
00000150: 0000 0040 6ef9 3fbf 0000 0060 6d1c 39bf
00000160: 0000 0040 4e16 32bf 0000 00c0 1e4d 39bf
00000170: 0000 0080 2ab7 33bf 0000 0080 1434 35bf
00000180: 0000 0060 f6fe 32bf 0000 0000 c79f 30bf
00000190: 0000 0060 aa86 2fbf 0000 00c0 697d 15bf
000001a0: 0000 0080 0451 27bf 0000 0080 d0a8 31bf
000001b0: 0000 0000 af4e 29bf 0000 0000 cee7 19bf
000001c0: 0000 0000 9b80 103f 0000 0020 4932 14bf
000001d0: 0000 0060 7162 0d3f 0000 00e0 744b 243f
000001e0: 0000 00c0 d580 e23e 0000 0080 3f33 f4be
000001f0: 0000 0080 ad11 2e3f 0000 00c0 f253 2d3f
00000200: 0000 0000 87d8 373f 0000 00c0 f783 263f
00000210: 0000 0000 f579 153f 0000 0000 e385 363f
00000220: 0000 0000 ad6a 3b3f 0000 00e0 1ae4 333f
00000230: 0000 0060 7c56 2e3f 0000 0060 ba78 393f
00000240: 0000 0080 20b6 103f 0000 0040 df8b 3c3f
00000250: 0000 00c0 e1a0 3a3f 0000 00e0 f644 273f
00000260: 0000 0060 87d6 263f 0000 0080 5487 223f
00000270: 0000 00e0 35c1 fe3e 0000 0060 a9db 2a3f
00000280: 0000 0000 33cb 2d3f 0000 00e0 6ce5 053f
00000290: 0000 0060 ff78 313f 0000 00c0 f9a9 203f
000002a0: 0000 0060 9981 0dbf 0000 0000 b358 39bf
000002b0: 0000 0080 8b76 103f 0000 00e0 a92b 33bf
000002c0: 0000 00e0 e180 25bf 0000 00e0 1461 26bf
000002d0: 0000 00c0 8533 14bf 0000 0060 3268 2fbf
000002e0: 0000 0060 017e 2ebf 0000 0000 d727 f8be
000002f0: 0000 0000 af34 23bf 0000 0080 29c9 203f
00000300: 0000 0080 e905 31bf 0000 0000 d37c 3d3f
00000310: 0000 00c0 83a2 403f 0000 0000 74c1 373f
00000320: 0000 0000 193e 04bf 0000 0000 4b99 023f
00000330: 0000 0080 b7b6 02bf 0000 0040 f276 2f3f
00000340: 0000 0000 7b18 22bf 0000 0040 def7 efbe
00000350: 0000 00c0 6ea8 063f 0000 00c0 eda2 13bf
00000360: 0000 0080 051f 323f 0000 0020 3725 243f
00000370: 0000 0000 9107 21bf 0000 0060 527b 013f
00000380: 0000 0020 80ae 343f 0000 0060 928d 25bf
00000390: 0000 0080 5d16 08bf 0000 00e0 7689 363f
000003a0: 0000 0040 327b eebe 0000 00e0 d976 1d3f
000003b0: 0000 0080 cf19 333f 0000 0000 4b92 f03e
000003c0: 0000 00e0 228b 433f 0000 0060 9e56 3a3f
000003d0: 0000 00e0 67fa 0fbf 0000 0000 b399 383f
000003e0: 0000 0080 992d 203f 0000 00c0 6c23 1fbf
000003f0: 0000 0000 887a 0a3f 0000 00c0 3a98 e03e
00000400: 0000 0060 0b9b 0ebf 0000 0040 162a 313f
00000410: 0000 00c0 5b05 193f 0000 0000 0de4 113f
00000420: 0000 00c0 8a02 323f 0000 0000 e249 26bf
00000430: 0000 0000 1e60 37bf 0000 0060 e261 27bf
00000440: 0000 0080 6c68 19bf 0000 0060 4348 2e3f
00000450: 0000 0060 6324 183f 0000 0040 763a 31bf
00000460: 0000 0000 a691 0a3f 0000 00e0 d49e 3a3f
00000470: 0000 00c0 3247 203f 0000 00e0 99c4 2a3f
00000480: 0000 0080 77bd 283f 0000 00e0 3803 303f
00000490: 0000 0040 8da1 233f 0000 00c0 7313 b6be
000004a0: 0000 0080 5bcd 28bf 0000 0060 8d15 fdbe
000004b0: 0000 0060 46e5 353f 0000 0080 afa2 3d3f
000004c0: 0000 0060 19c3 f43e 0000 00c0 e9e0 383f
000004d0: 0000 0080 3024 3a3f 0000 0000 39f7 19bf
000004e0: 0000 0020 161a 243f 0000 0060 6f86 00bf
000004f0: 0000 0000 7bee 10bf 0000 0000 de28 12bf
00000500: 0000 00e0 e4df 24bf 0000 00c0 4168 3bbf
00000510: 0000 0060 c79c 1dbf 0000 00c0 089d 223f
00000520: 0000 00c0 2f21 303f 0000 0040 591a 093f
00000530: 0000 00e0 3d55 33bf 0000 0080 b369 1a3f
00000540: 0000 0080 9886 1f3f 0000 0080 75c1 143f
00000550: 0000 00e0 f346 123f 0000 0060 ffc5 21bf
00000560: 0000 0080 cab7 273f 0000 0000 103b 28bf
00000570: 0000 00e0 cc95 2cbf 0000 00e0 a5cd 2cbf
00000580: 0000 0040 38d6 f33e 0000 0000 5a4c 30bf
00000590: 0000 0060 1d98 24bf 0000 00c0 12ae a03e
000005a0: 0000 0000 a26d 0d3f 0000 0020 8dd6 143f
000005b0: 0000 00c0 a2d4 393f 0000 0040 4e92 373f
000005c0: 0000 0040 dbe6 343f 0000 0020 7770 243f
000005d0: 0000 0080 f9ef 0bbf 0000 00c0 c74e 403f
000005e0: 0000 00c0 4cef 1f3f 0000 0000 aa4e 14bf
000005f0: 0000 00e0 de0e 23bf 0000 00c0 8e6e 1abf
00000600: 0000 00e0 3b5f e53e 0000 0060 4eae 2fbf
00000610: 0000 00c0 95cf 203f 0000 00c0 3f69 313f
00000620: 0000 00e0 b49f 40bf 0000 0040 baa5 32bf
00000630: 0000 0060 906a 25bf 0000 0060 7d62 36bf
00000640: 0000 0080 f5a1 eb3e 0000 00a0 5ae2 11bf
00000650: 0000 0080 8d09 123f 0000 0000 0d9b 33bf
00000660: 0000 0040 8fc3 313f 0000 00e0 c173 33bf
00000670: 0000 0040 a923 1ebf 0000 00c0 9c03 353f
00000680: 0000 00c0 af15 3e3f 0000 0040 4d5c 0cbf
00000690: 0000 00e0 0f42 20bf 0000 0060 a55d 26bf
000006a0: 0000 0000 0a34 3fbf 0000 0000 a592 383f
000006b0: 0000 00e0 ff51 303f 0000 0060 1987 fbbe
000006c0: 0000 00c0 41da f63e 0000 00c0 4df7 263f
000006d0: 0000 0000 dd11 25bf 0000 00e0 0c10 343f
000006e0: 0000 0000 d8b0 32bf 0000 0060 23db 2bbf
000006f0: 0000 0060 aab6 1e3f 0000 0000 ed53 2d3f
00000700: 0000 0060 6201 2f3f 0000 0000 67ce 3b3f
00000710: 0000 0060 41f4 313f 0000 0000 26cf 30bf
00000720: 0000 0000 db16 20bf 0000 0060 58be efbe
00000730: 0000 00c0 745b f03e 0000 0000 e5fe fdbe
00000740: 0000 00c0 bffe 393f 0000 00c0 ae65 3a3f
00000750: 0000 00e0 1e03 173f 0000 0080 b7cf 063f
00000760: 0000 00c0 c44d 123f 0000 0040 fa64 2fbf
00000770: 0000 00c0 8e50 033f 0000 0060 a25b 26bf
00000780: 0000 0060 a695 2dbf 0000 0040 0882 1dbf
00000790: 0000 0080 8830 25bf 0000 0020 33dc 32bf
000007a0: 0000 0080 4ffb 1a3f 0000 00c0 7bd5 32bf
000007b0: 0000 00c0 3b8d 20bf 0000 0080 53da 3a3f
000007c0: 0000 00e0 2cd6 2f3f 0000 0040 0033 41bf
000007d0: 0000 0000 97de 2abf 0000 0000 07b3 43bf
000007e0: 0000 0040 055c 37bf 0000 00c0 b41e 303f
000007f0: 0000 00e0 41be 323f 0000 0060 1e51 253f
0.0 0.0004953275201842189 0.0008349093841388822 0.0016113261226564646 0.0013449278194457293 0.0008745032246224582 0.0006588355172425508 0.0004986754502169788
0.0006417782278731465 0.0006920016603544354 0.0008592228405177593 0.0010428507812321186 0.0007762797176837921 0.0006328534218482673 0.0010223127901554108 0.0011985820019617677
0.0010537535417824984 0.0009081949247047305 0.0010119981598109007 0.0010596648789942265 0.001087486045435071 0.0007460791384801269 0.00076323002576828 0.0007084679673425853
0.0008235253626480699 0.0007065354730002582 0.0006471993401646614 0.0005584113532677293 0.00048796471673995256 0.000463938747998327 0.0003137773310299963 0.0002683046623133123
7.081888907123357e-05 4.811341568711214e-05 -8.224707562476397e-05 -0.00010402493353467435 -0.0003809946065302938 -0.00025390402879565954 -0.0003392890503164381 -0.0003404606250114739
-0.0003977403393946588 -0.0005067021120339632 -0.0004878896870650351 -0.0003831641224678606 -0.0002759877243079245 -0.00038606644375249743 -0.0003008345374837518 -0.0003235387848690152
-0.00028985514654777944 -0.00025366409681737423 -0.00024052457592915744 -8.197744318749756e-05 -0.00017789058620110154 -0.00026946153957396746 -0.00019307981710880995 -9.882159065455198e-05
6.295152707025409e-05 -7.704325980739668e-05 5.604656689683907e-05 0.00015483667084481567 8.823042662697844e-06 -1.926440017996356e-05 0.0002294086734764278 0.0002237542939838022
0.00036385818384587765 0.0001717796258162707 8.192594395950437e-05 0.0003436736296862364 0.0004183456767350435 0.00030351310851983726 0.00023145931481849402 0.00038866567774675786
6.374905933625996e-05 0.000435583118814975 0.00040631782030686736 0.0001775313721736893 0.00017424013640265912 0.00014136225217953324 2.9329994504223578e-05 0.0002049106842605397
0.00022730825003236532 4.1763672925299034e-05 0.00026661143056117 0.00012713597971014678 -5.6278699048561975e-05 -0.0003867566119879484 6.280161323957145e-05 -0.0002925195440184325
-0.00016405827773269266 -0.00017073993512894958 -7.70616898080334e-05 -0.00023961653641890734 -0.00023263708862941712 -2.3036598577164114e-05 -0.00014652858953922987 0.00012806541053578258
-0.00025975180324167013 0.0004499449860304594 0.0005076545057818294 0.00036248285323381424 -3.8609636249020696e-05 3.54743970092386e-05 -3.569362161215395e-05 0.00024005610612221062
-0.0001380586763843894 -1.5243642337736674e-05 4.3216590711381286e-05 -7.49070750316605e-05 0.0002765072276815772 0.00015369699394796044 -0.00012992520350962877 3.3343745599268004e-05
0.0003155768208671361 -0.00016443645290564746 -4.594300116878003e-05 0.00034388687345199287 -1.453458571631927e-05 0.00011239723971812055 0.00029145542066544294 1.5803772839717567e-05
0.0005964203155599535 0.0004018913896288723 -6.099347592680715e-05 0.0003753721248358488 0.00012342928675934672 -0.00011878348595928401 5.050399340689182e-05 7.912944056442939e-06
-5.837563003296964e-05 0.0002619079896248877 9.544727799948305e-05 6.824807496741414e-05 0.00027480971766635776 -0.00017004855908453465 -0.0003566811792552471 -0.00017839325300883502
-9.692346793599427e-05 0.00023103544663172215 9.209496056428179e-05 -0.0002628840156830847 5.067622987553477e-05 0.00040619561332277954 0.00012419218546710908 0.0002042234264081344
0.00018875201931223273 0.000244332681177184 0.000149773113662377 -1.3158312412997475e-06 -0.0001892255968414247 -2.773684354906436e-05 0.0003341004194226116 0.00045220169704407454
1.9800287191173993e-05 0.0003796168020926416 0.0003988855751231313 -9.905133629217744e-05 0.0001533653266960755 -3.151919736410491e-05 -6.45887921564281e-05 -6.92735193297267e-05
-0.0001592604530742392 -0.00041820149635896087 -0.00011296240700175986 0.00014200908481143415 0.00024611869594082236 4.788002843270078e-05 -0.0002949977933894843 0.00010075719910673797
0.00012026124750263989 7.917670882306993e-05 6.972182745812461e-05 -0.00013560049410443753 0.0001809534733183682 -0.00018486566841602325 -0.0002180874434998259 -0.00021975183335598558
1.8917842680821195e-05 -0.00024869153276085854 -0.00015712126332800835 4.971019507138408e-07 5.612993845716119e-05 7.949100836412981e-05 0.0003941438044421375 0.00035967264557257295
0.00031893589766696095 0.0001559396187076345 -5.328636325430125e-05 0.0004976725904271007 0.0001218214601976797 -7.74661311879754e-05 -0.0001454016746720299 -0.00010082956578116864
1.0190967259404715e-05 -0.00024170595861505717 0.0001282568264286965 0.00026567274471744895 -0.000507319753523916 -0.00028453633422032 -0.00016339313879143447 -0.0003415638057049364
1.3176275388104841e-05 -6.822279101470485e-05 6.880689761601388e-05 -0.00029915873892605305 0.0002710556727834046 -0.0002968166663777083 -0.00011497231025714427 0.0003206498804502189
0.00045905628940090537 -5.4093463404569775e-05 -0.0001240391138708219 -0.0001706375478534028 -0.00047612423077225685 0.0003749516326934099 0.0002490281767677516 -2.6252489988110028e-05
2.1793905034428462e-05 0.00017521690460853279 -0.00016074965242296457 0.0003061324532609433 -0.000285198912024498 -0.0002125244791386649 0.0001171628464362584 0.0002237536245957017
0.00023655248514842242 0.0004242898430675268 0.0002739581686910242 -0.0002564876340329647 -0.0001227514585480094 -1.513649749540491e-05 1.5599489415762946e-05 -2.8606111300177872e-05
0.00039665395161136985 0.00040278927190229297 8.778453775448725e-05 4.350928065832704e-05 6.9823392550461e-05 -0.00023952059564180672 3.6839825042989105e-05 -0.00017057759396266192
-0.00022571235604118556 -0.00011256385187152773 -0.00016166368732228875 -0.00028778312844224274 0.00010292694787494838 -0.00028738280525431037 -0.0001262793957721442 0.00040974176954478025
0.00024289415159728378 -0.0005248786183074117 -0.00020499795209616423 -0.000601175706833601 -0.0003564369981177151 0.00024597084848210216 0.0002859984233509749 0.0001626348093850538
