histograms/histogram_linear3a.weight.mean_Hyper__HopperBulletEnv-v0_seed4_scale1.npy (npy, 518072 bytes, 1 tensors)

array f8 [64743]
0	0x0000000000000000	0.0
1	0x3f3683f8c0000000	0.00034355948446318507
2	0x3f3d810560000000	0.00045019513345323503
3	0x3f53b07ea0000000	0.0012017475673928857
4	0x3f79297a00000000	0.006143070757389069
5	0x3f7dd7cb40000000	0.007285875268280506
6	0x3f7d08b3c0000000	0.0070883771404623985
7	0x3f781c92c0000000	0.005886624567210674
8	0x3f6ec2ea40000000	0.0037550521083176136
9	0x3f70e0d3c0000000	0.004120661877095699
10	0x3f7b4e9ac0000000	0.0066667599603533745
11	0x3f7e9ef2c0000000	0.007475803606212139
12	0x3f7746b800000000	0.0056826770305633545
13	0x3f7069af00000000	0.004007037729024887
14	0x3f68834760000000	0.0029922861140221357
15	0x3f65995b60000000	0.002636602846905589
16	0x3f554fc000000000	0.0013007521629333496
17	0x3f4c76e540000000	0.0008686656365171075
18	0xbf1bb1dfe0000000	-0.00010564736294327304
19	0xbef8c07dc0000000	-2.3605269234394655e-05
20	0xbf4dfb0340000000	-0.0009149328107014298
21	0xbf3e2e2800000000	-0.0004605147987604141
22	0x3f3004abc0000000	0.0002444190322421491
23	0x3f313e9e60000000	0.0002631317765917629
24	0x3f03a42f00000000	3.7462887121364474e-05
25	0xbf42a04b00000000	-0.0005684248171746731
26	0xbf501f54e0000000	-0.000984032521955669
27	0xbf4c579900000000	-0.000864934641867876
28	0xbf3e3a6d60000000	-0.0004612462071236223
29	0xbf541f7a00000000	-0.0012282077223062515
30	0xbf4e8ab260000000	-0.0009320612880401313
31	0xbf40339640000000	-0.0004944308893755078
32	0xbf609bb000000000	-0.002027362585067749
33	0xbf5d3ffae0000000	-0.001785273547284305
34	0xbf590a9200000000	-0.0015283990651369095
35	0xbf5a634100000000	-0.0016105780377984047
36	0xbf55f67900000000	-0.0013405019417405128
37	0xbf561224c0000000	-0.0013470991980284452
38	0xbf5c194060000000	-0.00171500479336828
39	0xbf5b3a2260000000	-0.001661809510551393
40	0xbf592673e0000000	-0.001535046729259193
41	0xbf55d46d60000000	-0.0013323848834261298
42	0xbf54136840000000	-0.0012253301683813334
43	0xbf625f9d40000000	-0.0022428580559790134
44	0xbf60e6c880000000	-0.0020631710067391396
45	0xbf56dcb460000000	-0.00139539351221174
46	0xbf48ea26c0000000	-0.000760334893129766
47	0xbf521714a0000000	-0.0011041356483474374
48	0xbf51e10760000000	-0.0010912487050518394
49	0xbf607f9fc0000000	-0.0020139808766543865
50	0xbf1bfcc580000000	-0.00010676341480575502
51	0xbf4aae6300000000	-0.0008142455480992794
52	0xbf426e4900000000	-0.0005624634213745594
53	0xbf4df36140000000	-0.0009140229085460305
54	0xbf53fa0140000000	-0.001219273777678609
55	0xbf43291a00000000	-0.000584733672440052
56	0xbf3daf6560000000	-0.00045295929885469377
57	0xbf4b1e1980000000	-0.0008275627624243498
58	0xbf6028ef60000000	-0.001972644357010722
59	0xbf5c3e3a00000000	-0.0017238203436136246
60	0xbf45f84800000000	-0.0006704665720462799
61	0xbf56a0a660000000	-0.0013810753589496017
62	0xbf57d8a960000000	-0.001455464749597013
63	0xbf5296b7e0000000	-0.0011345668463036418
64	0xbf522a1800000000	-0.0011086687445640564
65	0x3f456700c0000000	0.000653148046694696
66	0x3f45a7d7c0000000	0.0006608775584027171
67	0xbf2ad794c0000000	-0.00020478907390497625
68	0xbf3b94bfc0000000	-0.00042085343739017844
69	0xbf4d324ce0000000	-0.0008910060278140008
70	0x3f323b2d60000000	0.00027818544185720384
71	0xbf52be73a0000000	-0.0011440400267019868
72	0x3f41507fe0000000	0.000528395117726177
73	0x3f51e3c680000000	0.0010919035412371159
74	0x3ebac03ac0000000	1.5944776805554284e-06
75	0x3f32f2d600000000	0.00028913235291838646
76	0x3ef1c1ee00000000	1.693490776233375e-05
77	0xbf4e14c7c0000000	-0.0009180045453831553
78	0x3f302d0ca0000000	0.0002468257735017687
79	0xbf3712da40000000	-0.0003520758473314345
80	0x3ef16dc300000000	1.662135764490813e-05
81	0x3f48342a00000000	0.0007386403158307076
82	0x3f4feda500000000	0.0009743743576109409
83	0x3f5427da40000000	0.0012302047107368708
84	0x3f57142ac0000000	0.001408616779372096
85	0x3ec2f6a560000000	2.2606207039643778e-06
86	0xbf3efb0a00000000	-0.0004727267660200596
87	0xbf402df220000000	-0.0004937584162689745
88	0x3f3dee70c0000000	0.00045671703992411494
89	0x3efe84b900000000	2.910465991590172e-05
90	0xbef5d2f5c0000000	-2.0813047740375623e-05
91	0xbf3b13e440000000	-0.0004131729365326464
92	0x3f2b9a2560000000	0.00021058756101410836
93	0xbf3c647600000000	-0.0004332340322434902
94	0xbf49a95500000000	-0.0007831254042685032
95	0x3f35871b00000000	0.0003284874837845564
96	0xbf14a30980000000	-7.872338755987585e-05
97	0xbf515c3240000000	-0.0010595789644867182
98	0xbf51ea8a40000000	-0.0010935163591057062
99	0xbefc3c5860000000	-2.6927684302791022e-05
100	0xbf370299c0000000	-0.00035110715543851256
101	0x3f5348ce00000000	0.0011770259588956833
102	0xbf4292eb60000000	-0.0005668305675499141
103	0x3f3c6edfc0000000	0.0004338547005318105
104	0x3f26c0c4c0000000	0.00017359163030050695
105	0xbf318638a0000000	-0.00026739962049759924
106	0x3f399254e0000000	0.00039019176620058715
107	0x3f43a53940000000	0.0005995301762595773
108	0x3f5549a800000000	0.0012992992997169495
109	0x3f5eb74fc0000000	0.0018747595604509115
110	0x3f4be40500000000	0.0008511566556990147
111	0x3f6109db40000000	0.002079895231872797
112	0x3f525f6e80000000	0.0011213854886591434
113	0x3f504a4280000000	0.0009942674078047276
114	0x3f4dd3a5e0000000	0.000910240167286247
115	0xbf58679160000000	-0.0014895362546667457
116	0xbf61636800000000	-0.0021225959062576294
117	0xbf271fb460000000	-0.0001764209446264431
118	0x3f51106980000000	0.001041510608047247
119	0xbf55874e00000000	-0.001313997432589531
120	0xbf57a86940000000	-0.0014439609367400408
121	0x3f20fbab00000000	0.00012957060243934393
122	0xbf5ffcc460000000	-0.0019523542141541839
123	0xbf50b20be0000000	-0.0010190120665356517
124	0x3f13f09480000000	7.606417057104409e-05
125	0xbf4357c8c0000000	-0.000590298674069345
126	0xbf60740440000000	-0.0020084460265934467
127	0xbf3e7bac00000000	-0.0004651350900530815
128	0x3f5e9b6380000000	0.0018681022338569164
129	0xbf506504c0000000	-0.0010006472002714872
130	0xbf525790e0000000	-0.0011195101542398334
131	0x3f60fcd800000000	0.0020736902952194214
132	0x3f40f3b340000000	0.0005173325771465898
133	0xbf4feaba60000000	-0.0009740266832523048
134	0xbf48dc9640000000	-0.0007587178843095899
135	0x3f4b3e0a00000000	0.0008313702419400215
136	0x3f19134e00000000	9.565509390085936e-05
137	0xbf52ce1860000000	-0.0011477697407826781
138	0x3f386f78e0000000	0.00037285519647412
139	0xbf47ff7a00000000	-0.0007323594763875008
140	0xbf5f7e0700000000	-0.0019221371039748192
141	0x3f55705100000000	0.0013085165992379189
142	0x3f583593c0000000	0.0014776175376027822
143	0x3f3b93fa60000000	0.00042080748244188726
144	0xbf5d396900000000	-0.0017837071791291237
145	0x3f51179b20000000	0.0010432257549837232
146	0x3f57cc1ac0000000	0.0014524708967655897
147	0xbf580e2500000000	-0.0014682160690426826
148	0xbf53dacc60000000	-0.0012118335580453277
149	0xbf3df0d200000000	-0.00045685889199376106
150	0x3f2ae12600000000	0.00020507420413196087
151	0x3f45f91400000000	0.0006705615669488907
152	0x3f5b59ba60000000	0.001669342047534883
153	0xbf10a86240000000	-6.354427023325115e-05
154	0x3f612ab100000000	0.002095552161335945
155	0x3f68308600000000	0.002952825278043747
156	0x3f644c08e0000000	0.002477662404999137
157	0x3f5833cac0000000	0.001477191923186183
158	0xbf5a19d260000000	-0.0015930704539641738
159	0xbf62ace500000000	-0.0022797081619501114
160	0xbf501326a0000000	-0.0009811284253373742
161	0xbf58e618c0000000	-0.001519703073427081
162	0xbf341e20e0000000	-0.00030697157490067184
163	0xbf48a6f7e0000000	-0.0007523260428570211
164	0xbf6155c220000000	-0.00211608805693686
165	0x3f5c0dc0e0000000	0.0017122634453698993
166	0xbf5dbc8360000000	-0.0018149645766243339
167	0xbf602b9540000000	-0.001973906997591257
168	0xbf45e6d780000000	-0.0006683876272290945
169	0xbf6ea87dc0000000	-0.003742452245205641
170	0xbed03fad60000000	-3.874001322401455e-06
171	0x3f5e68a680000000	0.001856005284935236
172	0xbf14f98720000000	-8.0012199759949e-05
173	0x3f6d93ddc0000000	0.0036105471663177013
174	0x3f63470840000000	0.002353206742554903
175	0xbf60b0e580000000	-0.0020374758169054985
176	0x3f5e9fb4c0000000	0.0018691315781325102
177	0x3f60339fe0000000	0.0019777414854615927
178	0x3f61cf24e0000000	0.0021739692892879248
179	0x3f503216c0000000	0.0009885046165436506
180	0xbf52ea5c80000000	-0.0011545089073479176
181	0xbf5ece18e0000000	-0.0018801920814439654
182	0xbf68f36cc0000000	-0.0030457614921033382
183	0xbf591d7d40000000	-0.001532909693196416
184	0x3f601718c0000000	0.0019641383551061153
185	0xbf50cceb20000000	-0.0010254188673570752
186	0xbf5a475d60000000	-0.0016039287438616157
187	0xbf3356d100000000	-0.00029509165324270725
188	0xbf16c26000000000	-8.681975305080414e-05
189	0x3f44bdc6c0000000	0.0006329746684059501
190	0x3f6f18f7e0000000	0.0037960854824632406
191	0x3f5a87b780000000	0.0016192714683711529
192	0x3f6233cdc0000000	0.0022219675593078136
193	0x3f6fd76b80000000	0.003886899910867214
194	0x3f7107b440000000	0.0041577378287911415
195	0xbf4ec5ddc0000000	-0.0009391148341819644
196	0xbf54c20ac0000000	-0.0012669663410633802
197	0x3f5085be60000000	0.0010084494715556502
198	0xbf3cde2c80000000	-0.0004404886858537793
199	0xbf595e2a40000000	-0.0015483296010643244
200	0xbf6206b060000000	-0.0022004551719874144
201	0x3f24e0bb80000000	0.0001592854387126863
202	0xbf456f9860000000	-0.0006541723269037902
203	0xbf61afa300000000	-0.0021589454263448715
204	0xbf36875200000000	-0.00034375907853245735
205	0xbf5aee5f60000000	-0.0016437465092167258
206	0x3f45803540000000	0.0006561527261510491
207	0xbf7ae939c0000000	-0.006570077501237392
208	0x3f32ac3060000000	0.00028492146520875394
209	0xbf2a39b1e0000000	-0.0002000836975639686
210	0x3f36c5b440000000	0.00034747744211927056
211	0x3f6e17ba60000000	0.00367342378012836
212	0x3f70404e80000000	0.003967577591538429
213	0x3f6d08ad00000000	0.003544175997376442
214	0x3f70a29ea0000000	0.004061336163431406
215	0xbf4b784e00000000	-0.0008383160457015038
216	0x3f4d28f8c0000000	0.000889893970452249
217	0x3f6aa609c0000000	0.0032530012540519238
218	0x3f6b401760000000	0.0033264595549553633
219	0x3f5d1f0040000000	0.001777410740032792
220	0xbf5e1447c0000000	-0.00183588988147676
221	0x3f0ee3e140000000	5.891829641768709e-05
222	0xbf660d1360000000	-0.002691781846806407
223	0xbf70d90500000000	-0.0041132159531116486
224	0xbf67506260000000	-0.0028459473978728056
225	0x3f411284c0000000	0.0005210064118728042
226	0xbef907b800000000	-2.3870612494647503e-05
227	0xbf58cb5760000000	-0.0015133240958675742
228	0xbf6dbc2660000000	-0.0036297559272497892
229	0xbf54d6db40000000	-0.0012719288934022188
230	0xbf41ccbe00000000	-0.0005432059988379478
231	0x3f70310ee0000000	0.003953035455197096
232	0xbf15ceb7e0000000	-8.318898471770808e-05
233	0xbf617d6ce0000000	-0.002135002752766013
234	0x3f464e5ee0000000	0.0006807292229495943
235	0xbf6de5f580000000	-0.003649692051112652
236	0x3f6c5e5340000000	0.0034629465080797672
237	0x3f646422c0000000	0.0024891546927392483
238	0x3f50257e40000000	0.000985501566901803
239	0x3f66a967c0000000	0.002766325604170561
240	0x3f33c55c20000000	0.00030168055673129857
241	0x3f628f8d80000000	0.002265716902911663
242	0x3f6350f480000000	0.002357938326895237
243	0x3f322c1f80000000	0.0002772881416603923
244	0xbf7716d960000000	-0.005637024994939566
245	0xbf74077c80000000	-0.004889952018857002
246	0xbf60dadde0000000	-0.002057488774880767
247	0xbf662262c0000000	-0.002701943274587393
248	0xbf69737b00000000	-0.0031068231910467148
249	0xbf737e2d80000000	-0.0047590043395757675
250	0xbf70a01540000000	-0.004058917053043842
251	0xbf66569080000000	-0.0027268240228295326
252	0x3f023f14e0000000	3.4802269510691985e-05
253	0x3f70d01400000000	0.004104688763618469
254	0x3f772aef40000000	0.0056561799719929695
255	0x3f5b5f9a40000000	0.0016707426402717829
