histograms/histogram_linear3a.weight_Hyper__Walker2DBulletEnv-v0_seed2_scale1.npy (npy, 822072 bytes, 1 tensors)

array f8 [102743]
000000 00 00 00 00 00 00 00 00 00 00 00 40 98 7a 43 3f
       0.0 0.0005944484146311879
000010 00 00 00 00 ea 4f 5b 3f 00 00 00 e0 94 28 72 3f
       0.0016670022159814835 0.0044332328252494335
000020 00 00 00 c0 12 d1 60 3f 00 00 00 60 7d 89 4d 3f
       0.002052818890661001 0.0009013998205773532
000030 00 00 00 40 34 c1 3d 3f 00 00 00 00 4b b7 37 3f
       0.0004540207446552813 0.0003618772607296705
000040 00 00 00 c0 39 b0 3d 3f 00 00 00 80 ec 8f 41 3f
       0.00045300874626263976 0.00053595588542521
000050 00 00 00 e0 d2 05 4c 3f 00 00 00 00 3a 6b 48 3f
       0.0008551864302717149 0.0007452042773365974
000060 00 00 00 40 cc a3 54 3f 00 00 00 c0 d0 87 52 3f
       0.00125975557602942 0.001131013734266162
000070 00 00 00 e0 c4 5d 5b 3f 00 00 00 c0 5e b6 5a 3f
       0.0016703055007383227 0.0016303944867104292
000080 00 00 00 c0 9f 13 58 3f 00 00 00 e0 2d 47 5f 3f
       0.0014695224817842245 0.0019090602872893214
000090 00 00 00 40 f5 27 60 3f 00 00 00 00 1f 56 61 3f
       0.0019721784628927708 0.002116261050105095
0000a0 00 00 00 00 04 89 59 3f 00 00 00 c0 33 1c 56 3f
       0.0015585459768772125 0.00134949735365808
0000b0 00 00 00 00 1a 5d 55 3f 00 00 00 60 e0 08 54 3f
       0.0013039354234933853 0.0012228194391354918
0000c0 00 00 00 40 fb 9b 50 3f 00 00 00 00 00 9b 38 3f
       0.0010137513745576143 0.00037544965744018555
0000d0 00 00 00 40 9f 5c 23 3f 00 00 00 00 c4 1e 30 bf
       0.0001477188488934189 -0.0002459743991494179
0000e0 00 00 00 80 b2 7c 26 bf 00 00 00 40 e7 29 41 bf
       -0.00017156294779852033 -0.000523794093169272
0000f0 00 00 00 e0 87 fa 36 bf 00 00 00 c0 6a fb 3a bf
       -0.0003506261564325541 -0.0004117141361348331
000100 00 00 00 c0 e8 6f cd be 00 00 00 c0 99 f2 33 bf
       -3.5091811696474906e-06 -0.0003043771139346063
000110 00 00 00 80 fd dd e7 3e 00 00 00 60 48 ca 43 bf
       1.1380743671907112e-05 -0.0006039479630999267
000120 00 00 00 c0 cc cc 47 bf 00 00 00 00 58 f1 4e bf
       -0.0007263183360919356 -0.0009442977607250214
000130 00 00 00 e0 d2 38 51 bf 00 00 00 00 bd 1d 54 bf
       -0.0010511454893276095 -0.0012277932837605476
000140 00 00 00 80 11 73 53 bf 00 00 00 00 24 d4 58 bf
       -0.0011871024034917355 -0.0015154220163822174
000150 00 00 00 60 7b 49 59 bf 00 00 00 40 cf f4 56 bf
       -0.0015433983644470572 -0.0014011405874043703
000160 00 00 00 60 d1 56 55 bf 00 00 00 60 08 51 57 bf
       -0.0013024372747167945 -0.001423128298483789
000170 00 00 00 e0 2f be 56 bf 00 00 00 80 71 7b 51 bf
       -0.0013881175545975566 -0.001067028846591711
000180 00 00 00 40 73 c1 50 bf 00 00 00 80 dd c3 51 bf
       -0.001022684620693326 -0.001084295567125082
000190 00 00 00 00 5a a2 4d bf 00 00 00 60 43 fe 48 bf
       -0.0009043635800480843 -0.0007627324084751308
0001a0 00 00 00 c0 cc 87 3a bf 00 00 00 00 55 15 2c bf
       -0.00040482281474396586 -0.0002142587909474969
0001b0 00 00 00 80 bc 70 40 bf 00 00 00 40 79 27 35 bf
       -0.000501720467582345 -0.00032278738217428327
0001c0 00 00 00 00 a3 dd 3a bf 00 00 00 c0 b9 6f 1b 3f
       -0.0004099390935152769 0.00010466166713740677
0001d0 00 00 00 80 a1 0e 2b 3f 00 00 00 c0 b9 e5 2a 3f
       0.00020642968593165278 0.00020521061378531158
0001e0 00 00 00 c0 bf 9f 26 3f 00 00 00 00 ec c3 10 bf
       0.00017260757158510387 -6.395461969077587e-05
0001f0 00 00 00 80 48 ec 32 bf 00 00 00 80 61 cd 40 bf
       -0.0002887417795136571 -0.0005127645563334227
000200 00 00 00 40 4b fd 26 bf 00 00 00 e0 00 63 2a bf
       -0.0001753954275045544 -0.00020131478959228843
000210 00 00 00 60 f3 aa 0d bf 00 00 00 00 04 a0 3f bf
       -5.658679219777696e-05 -0.0004825601354241371
000220 00 00 00 60 c0 d4 0b bf 00 00 00 00 f7 08 3b bf
       -5.3083535021869466e-05 -0.00041252165101468563
000230 00 00 00 00 06 d6 1a bf 00 00 00 40 32 89 40 bf
       -0.00010237132664769888 -0.0005046363221481442
000240 00 00 00 00 49 9d 17 3f 00 00 00 60 3c a4 42 bf
       9.008176857605577e-05 -0.0005688948440365493
000250 00 00 00 00 88 7e 38 bf 00 00 00 c0 dc 01 18 bf
       -0.00037375278770923615 -9.15804848773405e-05
000260 00 00 00 80 37 39 3a bf 00 00 00 e0 6d 66 29 bf
       -0.00040013890247792006 -0.00019378749129828066
000270 00 00 00 60 29 93 fa 3e 00 00 00 80 76 b0 28 bf
       2.5343751985928975e-05 -0.00018836447270587087
000280 00 00 00 00 24 d0 31 bf 00 00 00 80 6b 3f 38 bf
       -0.0002718055620789528 -0.0003699910594150424
000290 00 00 00 40 8b 2f 2e bf 00 00 00 c0 41 10 0c 3f
       -0.00023029875592328608 5.352688458515331e-05
0002a0 00 00 00 00 1c 21 08 3f 00 00 00 40 8b 75 21 3f
       4.6023051254451275e-05 0.00013320278958417475
0002b0 00 00 00 80 29 45 25 3f 00 00 00 60 88 dc 40 3f
       0.0001622784766368568 0.0005145707982592285
0002c0 00 00 00 c0 cf d3 4a 3f 00 00 00 e0 b0 f5 2b 3f
       0.000818706932477653 0.0002133158122887835
0002d0 00 00 00 80 52 8b 43 3f 00 00 00 80 e0 81 1e 3f
       0.0005964424926787615 0.00011637623538263142
0002e0 00 00 00 40 40 d2 0a 3f 00 00 00 80 82 4e 29 3f
       5.115755629958585e-05 0.00019307463662698865
0002f0 00 00 00 00 18 54 03 3f 00 00 00 c0 07 c4 2e 3f
       3.686617128551006e-05 0.00023472399334423244
000300 00 00 00 c0 3f 99 07 3f 00 00 00 c0 23 2d 38 3f
       4.501081275520846e-05 0.0003689014702104032
000310 00 00 00 60 e9 83 30 bf 00 00 00 00 3f 6b 2a 3f
       -0.0002520031703170389 0.0002015604404732585
000320 00 00 00 c0 47 f2 23 3f 00 00 00 c0 42 d1 13 bf
       0.00015217901091091335 -7.559747609775513e-05
000330 00 00 00 00 6c ca 45 3f 00 00 00 00 00 06 3e 3f
       0.000664999708533287 0.00045812129974365234
000340 00 00 00 00 6e 0e 47 3f 00 00 00 20 53 ba 40 3f
       0.0007036244496703148 0.0005104928859509528
000350 00 00 00 e0 1c 20 2a 3f 00 00 00 c0 a7 04 36 3f
       0.000199321293621324 0.0003359708352945745
000360 00 00 00 80 32 06 41 3f 00 00 00 40 5c 3a 30 3f
       0.0005195375997573137 0.0002476191730238497
000370 00 00 00 e0 5c 95 33 3f 00 00 00 00 5e 1b 28 3f
       0.00029881970840506256 0.0001839210744947195
000380 00 00 00 00 80 b2 fe be 00 00 00 00 80 9b 6c be
       -2.927519381046295e-05 -5.328547558747232e-08
000390 00 00 00 00 5f ca 2f bf 00 00 00 00 79 10 2a bf
       -0.000242542359046638 -0.00019885518122464418
0003a0 00 00 00 c0 c2 9c 32 bf 00 00 00 c0 62 18 39 bf
       -0.00028400187147781253 -0.0003829232300631702
0003b0 00 00 00 c0 f8 06 4a bf 00 00 00 c0 ab 21 47 bf
       -0.0007942881202325225 -0.0007059181807562709
0003c0 00 00 00 e0 8f fb 45 bf 00 00 00 e0 ba 81 43 bf
       -0.0006708576693199575 -0.0005952990031801164
0003d0 00 00 00 40 0d ef 13 bf 00 00 00 80 6b 32 44 bf
       -7.60413968237117e-05 -0.0006163620855659246
0003e0 00 00 00 c0 6a 5a 1b bf 00 00 00 00 56 7c 37 3f
       -0.0001043441443471238 0.00035836314782500267
0003f0 00 00 00 80 b7 8e 2b 3f 00 00 00 60 a5 31 38 3f
       0.00021024694433435798 0.0003691700694616884
000400 00 00 00 a0 2a 8c 44 3f 00 00 00 00 7b 23 4f 3f
       0.0006270607118494809 0.0009502745233476162
000410 00 00 00 60 79 95 45 3f 00 00 00 c0 7c c4 05 3f
       0.0006586878444068134 4.151826578890905e-05
000420 00 00 00 60 7a 9b 3d 3f 00 00 00 40 b2 4c 42 3f
       0.0004517720954027027 0.000558459316380322
000430 00 00 00 c0 0b 22 3c 3f 00 00 00 40 9b 2f 20 3f
       0.0004292753874324262 0.0001234890951309353
000440 00 00 00 60 10 48 2a bf 00 00 00 00 fa 64 3a bf
       -0.00020051193132530898 -0.00040274718776345253
000450 00 00 00 60 bd af 40 bf 00 00 00 00 0c 3f 3f bf
       -0.0005092310602776706 -0.00047678034752607346
000460 00 00 00 80 01 75 46 bf 00 00 00 40 42 1e 3f bf
       -0.0006853349041193724 -0.0004748260253109038
000470 00 00 00 40 26 0e 34 bf 00 00 00 e0 13 97 28 3f
       -0.00030601915204897523 0.0001876079331850633
000480 00 00 00 00 12 ae 40 3f 00 00 00 60 38 61 20 bf
       0.0005090320482850075 -0.00012496770068537444
000490 00 00 00 c0 a6 a5 1b 3f 00 00 00 60 26 cc 4c 3f
       0.00010546522389631718 0.0008788287523202598
0004a0 00 00 00 80 b1 ac fc be 00 00 00 60 25 be 2e 3f
       -2.7346213755663484e-05 0.0002345486282138154
0004b0 00 00 00 00 dd 67 38 3f 00 00 00 60 7d 06 3a bf
       0.00037240167148411274 -0.00039711533463560045
0004c0 00 00 00 40 cc ca 15 bf 00 00 00 80 4a 09 3a bf
       -8.31305660540238e-05 -0.00039728230331093073
0004d0 00 00 00 c0 48 95 26 bf 00 00 00 c0 32 80 20 bf
       -0.0001722956949379295 -0.00012589091784320772
0004e0 00 00 00 60 04 14 31 3f 00 00 00 c0 c6 43 37 bf
       0.0002605925255920738 -0.0003549919347278774
0004f0 00 00 00 00 f2 f1 33 3f 00 00 00 40 77 d7 35 3f
       0.0003043380565941334 0.0003332773339934647
000500 00 00 00 80 1f 5a 10 3f 00 00 00 c0 a2 92 3c 3f
       6.237809429876506e-05 0.0004359862650744617
000510 00 00 00 c0 c7 c4 34 3f 00 00 00 60 5e 48 48 3f
       0.0003169047995470464 0.0007410488906316459
000520 00 00 00 c0 90 b7 28 3f 00 00 00 80 27 c5 07 3f
       0.0001885761448647827 4.5337932533584535e-05
000530 00 00 00 60 52 1a 2b 3f 00 00 00 00 45 a5 20 bf
       0.00020677810243796557 -0.00012699572835117579
000540 00 00 00 40 c7 f9 1c 3f 00 00 00 60 4e 59 23 3f
       0.00011053351045120507 0.00014762002683710307
000550 00 00 00 40 f4 e8 43 bf 00 00 00 60 e5 38 4a bf
       -0.0006076042773202062 -0.00080023956252262
000560 00 00 00 e0 e8 a0 3e bf 00 00 00 60 06 f1 31 bf
       -0.0004673546354752034 -0.00027376561774872243
000570 00 00 00 60 b0 f8 13 bf 00 00 00 c0 41 d9 27 3f
       -7.618500239914283e-05 0.00018195083248429
000580 00 00 00 60 b7 25 33 bf 00 00 00 c0 3a 15 3c 3f
       -0.0002921650593634695 0.00042851147009059787
000590 00 00 00 e0 fa ea 43 bf 00 00 00 60 32 8e 3b bf
       -0.0006078457809053361 -0.00042046289308927953
0005a0 00 00 00 e0 cd e5 28 bf 00 00 00 e0 dd ab 40 3f
       -0.00018995416758116335 0.000508769357111305
0005b0 00 00 00 c0 c2 51 4a 3f 00 00 00 40 7e 7d 52 3f
       0.0008032036712393165 0.0011285527143627405
0005c0 00 00 00 e0 98 bb 32 3f 00 00 00 e0 22 9d 28 3f
       0.00028583986568264663 0.00018778849334921688
0005d0 00 00 00 20 b6 6a 10 3f 00 00 00 e0 10 dd 52 3f
       6.262528040679172e-05 0.001151339034549892
0005e0 00 00 00 00 df e2 3a 3f 00 00 00 60 c5 fe 4c 3f
       0.0004102510865777731 0.0008848632569424808
0005f0 00 00 00 e0 8b 32 44 3f 00 00 00 60 78 02 4f bf
       0.0006163771613501012 -0.0009463393944315612
000600 00 00 00 00 2b 4c 4d bf 00 00 00 c0 1e 64 3c bf
       -0.0008940896950662136 -0.0004332137177698314
000610 00 00 00 40 91 0f 50 bf 00 00 00 c0 08 8d 46 bf
       -0.0009802740532904863 -0.0006881993031129241
000620 00 00 00 c0 c6 e8 52 bf 00 00 00 40 54 64 40 bf
       -0.0011541310232132673 -0.0005002414109185338
000630 00 00 00 00 71 42 41 bf 00 00 00 60 ff b9 40 bf
       -0.0005267192609608173 -0.0005104538868181407
000640 00 00 00 40 34 76 25 bf 00 00 00 c0 f0 fe f8 3e
       -0.0001637400418985635 2.3837910703150555e-05
000650 00 00 00 60 a6 a4 15 3f 00 00 00 80 15 09 50 bf
       8.25621173135005e-05 -0.0009787282906472683
000660 00 00 00 80 df 98 50 bf 00 00 00 c0 4f e2 27 3f
       -0.001013010274618864 0.00018222068320028484
000670 00 00 00 00 9e ba 3d 3f 00 00 00 00 37 b7 17 bf
       0.00045362813398241997 -9.046815102919936e-05
000680 00 00 00 a0 a0 d5 50 3f 00 00 00 c0 95 76 4a 3f
       0.0010274952510371804 0.0008075934601947665
000690 00 00 00 e0 c8 1d 56 3f 00 00 00 e0 0f 67 52 3f
       0.0013498746557161212 0.001123204710893333
0006a0 00 00 00 e0 26 62 50 3f 00 00 00 c0 74 b1 4d 3f
       0.0009999637259170413 0.0009061641758307815
0006b0 00 00 00 c0 51 35 09 bf 00 00 00 c0 52 d1 0a 3f
       -4.80809758300893e-05 5.1150644139852375e-05
0006c0 00 00 00 40 a2 08 41 bf 00 00 00 00 6f 92 2b 3f
       -0.0005198280559852719 0.0002103577135130763
0006d0 00 00 00 60 a3 ae 34 bf 00 00 00 60 f4 bf 33 bf
       -0.0003155850281473249 -0.0003013583773281425
0006e0 00 00 00 40 55 ed 43 bf 00 00 00 40 5a 26 f3 be
       -0.0006081262836232781 -1.8262686353409663e-05
0006f0 00 00 00 40 46 2e 51 bf 00 00 00 00 35 f9 3c bf
       -0.0010486303362995386 -0.0004420999903231859
000700 00 00 00 00 b1 a9 dd be 00 00 00 20 6f 23 03 3f
       -7.072176231304184e-06 3.650362850748934e-05
000710 00 00 00 60 95 93 37 3f 00 00 00 e0 7e c8 36 3f
       0.0003597488102968782 0.0003476438287179917
000720 00 00 00 00 b2 30 31 3f 00 00 00 c0 74 72 46 3f
       0.00026230188086628914 0.0006850309437140822
000730 00 00 00 c0 db 1c 27 bf 00 00 00 60 1d f8 50 bf
       -0.00017633612151257694 -0.0010357176652178168
000740 00 00 00 40 59 79 39 bf 00 00 00 c0 fe 70 3f bf
       -0.0003887026687152684 -0.0004797574947588146
000750 00 00 00 c0 05 1e 46 3f 00 00 00 80 cf 6a 35 3f
       0.0006749656749889255 0.0003268009750172496
000760 00 00 00 e0 31 0c 32 bf 00 00 00 c0 6c 10 2d 3f
       -0.0002753850712906569 0.0002217419387307018
000770 00 00 00 c0 44 5e 00 3f 00 00 00 e0 18 df f9 3e
       3.121993358945474e-05 2.4672959625604562e-05
000780 00 00 00 c0 0e a6 40 3f 00 00 00 00 ca 52 4c 3f
       0.0005080768605694175 0.0008643614128232002
000790 00 00 00 00 d6 08 3f 3f 00 00 00 c0 f9 26 3d bf
       0.00047354912385344505 -0.0004448280087672174
0007a0 00 00 00 e0 ae 27 30 bf 00 00 00 00 fa ee 51 3f
       -0.0002465059224050492 0.0010945741087198257
0007b0 00 00 00 e0 fa 6f 40 3f 00 00 00 80 2e 2d 3e bf
       0.00050163030391559 -0.0004604567075148225
0007c0 00 00 00 00 d5 11 44 bf 00 00 00 40 0c d1 1c bf
       -0.0006124773062765598 -0.00010992657917086035
0007d0 00 00 00 40 03 fd 34 bf 00 00 00 e0 7b 50 56 3f
       -0.0003202565130777657 0.0013619622914120555
0007e0 00 00 00 c0 cd 6c 35 3f 00 00 00 e0 e2 16 27 3f
       0.00032691977685317397 0.00017615813703741878
0007f0 00 00 00 e0 34 c0 40 3f 00 00 00 c0 f4 55 49 bf
       0.0005111940554343164 -0.000773186213336885
