histograms/histogram_linear3b.weight_Hyper__Walker2DBulletEnv-v0_seed2_scale1.npy (npy, 822072 bytes, 1 tensors)

array f8 [102743]
0	0x0000000000000000	0.0
1	0x3f449394a0000000	0.000627944536972791
2	0x3f52b21460000000	0.001141090295277536
3	0x3f6a618540000000	0.003220329526811838
4	0x3f601d0260000000	0.00196695770137012
5	0x3f51f682c0000000	0.0010963703971356153
6	0x3f4727aac0000000	0.0007066329708322883
7	0x3f43d75d80000000	0.0006055075209587812
8	0x3f3f03fd60000000	0.00047326026833616197
9	0x3f3da8a900000000	0.00045255781151354313
10	0x3f431a92c0000000	0.0005830017616972327
11	0x3f42a80d80000000	0.0005693498533219099
12	0x3f4ba6cf60000000	0.0008438599179498851
13	0x3f4a8d3b00000000	0.0008102930150926113
14	0x3f54ba8960000000	0.0012651769211515784
15	0x3f571e3360000000	0.0014110089978203177
16	0x3f52de4360000000	0.0011516244849190116
17	0x3f55813f60000000	0.0013125533005222678
18	0x3f561bede0000000	0.0013494322774931788
19	0x3f53aeca00000000	0.0012013409286737442
20	0x3f4c6c2b60000000	0.0008673869888298213
21	0x3f4fc9fcc0000000	0.0009701236849650741
22	0x3f52522d40000000	0.0011182252783328295
23	0x3f52d61500000000	0.0011496739462018013
24	0x3f55ad1980000000	0.001323008444160223
25	0x3f4d8f7500000000	0.0009021111764013767
26	0x3f4ccd3c60000000	0.0008789582061581314
27	0x3f400b0840000000	0.0004895963938906789
28	0x3f468f5900000000	0.0006884750910103321
29	0x3f30d515c0000000	0.0002568414784036577
30	0x3f3fa00c00000000	0.00048256199806928635
31	0x3f309bb440000000	0.00025342131266370416
32	0x3f18d6a500000000	9.475118713453412e-05
33	0xbf33d2a880000000	-0.0003024731995537877
34	0xbedd617d00000000	-7.0049318310339e-06
35	0xbf351e5d40000000	-0.00032224442111328244
36	0xbf377e0600000000	-0.00035846373066306114
37	0xbf38cdb900000000	-0.00037847296334803104
38	0xbf30702360000000	-0.000250824581598863
39	0xbf31478940000000	-0.00026366329984739423
40	0xbf3c7075c0000000	-0.000433949229773134
41	0xbf4011eb80000000	-0.0004904174711555243
42	0xbf3cb9bdc0000000	-0.0004383171326480806
43	0xbf377ec360000000	-0.0003585078229662031
44	0xbf34de0520000000	-0.00031840920564718544
45	0xbf3632d360000000	-0.00033872280619107187
46	0xbf38a3ab00000000	-0.0003759663086384535
47	0xbf35c37940000000	-0.0003320857067592442
48	0xbf30a86ec0000000	-0.0002541799913160503
49	0xbf336ed900000000	-0.00029652402736246586
50	0xbf2970aa60000000	-0.00019409255764912814
51	0xbf2d9d2b00000000	-0.00022593641187995672
52	0xbf14ca7f00000000	-7.931137224659324e-05
53	0x3f1ad04860000000	0.00010228578321402892
54	0xbf27307860000000	-0.0001769205991877243
55	0x3f10b6f3c0000000	6.376135570462793e-05
56	0xbef6bd5500000000	-2.1686151740141213e-05
57	0x3f40f25080000000	0.0005171673838049173
58	0x3f44e51d00000000	0.0006376639939844608
59	0x3f32b09940000000	0.0002851843019016087
60	0x3f42c561a0000000	0.0005728460964746773
61	0x3f36e3dac0000000	0.00034927454544231296
62	0x3f1ff33100000000	0.00012187944957986474
63	0x3f213f8ce0000000	0.00013159365335013717
64	0x3f2e67bfc0000000	0.00023197379778139293
65	0x3f394c8a80000000	0.00038603192660957575
66	0x3f40be7d60000000	0.0005109893972985446
67	0x3f28936a80000000	0.00018749880837276578
68	0x3f31624640000000	0.00026525702560320497
69	0x3f34d0cf80000000	0.00031762185972183943
70	0x3f3048de00000000	0.0002484838478267193
71	0xbef7751840000000	-2.2370721126208082e-05
72	0x3f359823c0000000	0.00032950280001387
73	0x3f0b149360000000	5.165171387488954e-05
74	0x3f29f95400000000	0.0001981654204428196
75	0x3f37d16680000000	0.00036343338433653116
76	0x3f2db73640000000	0.00022671258193440735
77	0x3f365b5d60000000	0.0003411391226109117
78	0xbf039a6800000000	-3.739004023373127e-05
79	0x3f0b4dfce0000000	5.207946742302738e-05
80	0x3f02942600000000	3.543606726452708e-05
81	0x3f119ddde0000000	6.720225064782426e-05
82	0xbf1923fd00000000	-9.590369882062078e-05
83	0x3f12c64480000000	7.161896792240441e-05
84	0xbf32eca0c0000000	-0.00028876232681795955
85	0xbf2fdb1480000000	-0.00024304032558575273
86	0xbef4218460000000	-1.9198347217752598e-05
87	0x3f026930e0000000	3.5116008803015575e-05
88	0x3f145ac580000000	7.76465458329767e-05
89	0xbf2ecdc100000000	-0.00023501378018409014
90	0xbf2b5cbfc0000000	-0.00020875778864137828
91	0xbf27a48700000000	-0.00018037937115877867
92	0xbf22075140000000	-0.0001375471765641123
93	0xbf26e57300000000	-0.00017468479927629232
94	0xbf097cb6c0000000	-4.861290653934702e-05
95	0xbf1b3fc600000000	-0.00010394712444394827
96	0xbf2297f5c0000000	-0.00014185786130838096
97	0x3eef4f79c0000000	1.4929986718925647e-05
98	0xbef009efe0000000	-1.5295807315851562e-05
99	0xbf16cc4ec0000000	-8.696776058059186e-05
100	0x3f2b467100000000	0.00020809296984225512
101	0xbf16d346c0000000	-8.707160304766148e-05
102	0x3f27ff6000000000	0.0001830868422985077
103	0x3f12829f80000000	7.06109858583659e-05
104	0x3f1009c860000000	6.118093006080016e-05
105	0x3f22617a00000000	0.00014023412950336933
106	0x3f2aaec460000000	0.00020357272296678275
107	0x3f1d9bed00000000	0.00011294969590380788
108	0x3f177d43c0000000	8.960462582763284e-05
109	0x3f21ec7560000000	0.00013674671936314553
110	0x3f327b9a20000000	0.0002820254594553262
111	0x3f30e2f9c0000000	0.00025766942417249084
112	0x3f3491a560000000	0.0003138569591101259
113	0xbee4c52a40000000	-9.903991667670198e-06
114	0xbf27ababe0000000	-0.0001805922802304849
115	0xbf1d2bd460000000	-0.00011127933248644695
116	0xbf25c24060000000	-0.0001660064299358055
117	0xbf163c07c0000000	-8.481786062475294e-05
118	0x3f1017d480000000	6.139025208540261e-05
119	0x3f1e03d200000000	0.00011449784506112337
120	0xbf20c1f740000000	-0.0001278509444091469
121	0x3f07838160000000	4.484880992094986e-05
122	0xbf146ba000000000	-7.789768278598785e-05
123	0xbf2edafe60000000	-0.0002354083553655073
124	0xbed47b2660000000	-4.883063866145676e-06
125	0x3eeff43100000000	1.5236793842632324e-05
126	0x3f30dc9560000000	0.00025728842592798173
127	0x3f25678760000000	0.00016330268408637494
128	0x3f280bb100000000	0.00018345389980822802
129	0x3f06cb9300000000	4.347841604612768e-05
130	0x3f3df5dfe0000000	0.0004571601457428187
131	0x3f17923bc0000000	8.991708455141634e-05
132	0x3f38b12760000000	0.000376770127331838
133	0x3f35f86d00000000	0.00033524190075695515
134	0x3f2e2f6d60000000	0.0002302952780155465
135	0x3f29c674c0000000	0.00019664931460283697
136	0xbef42d4b40000000	-1.924221942317672e-05
137	0x3f23ca7c20000000	0.00015099301526788622
138	0x3f1b0839c0000000	0.00010311939695384353
139	0x3f38909100000000	0.00037482776679098606
140	0xbef9b76560000000	-2.4525061235181056e-05
141	0xbf05442680000000	-4.0562081267125905e-05
142	0xbf24c241a0000000	-0.00015837718092370778
143	0x3f055cc0c0000000	4.074538446730003e-05
144	0xbf0f6ca800000000	-5.9937359765172005e-05
145	0xbf230faa40000000	-0.00014542535063810647
146	0xbf335806e0000000	-0.0002951638016384095
147	0xbf023d2c60000000	-3.478805228951387e-05
148	0xbf30c934e0000000	-0.0002561334695201367
149	0xbf0178e640000000	-3.332569758640602e-05
150	0xbf33356d80000000	-0.0002931015333160758
151	0xbf3b98fbc0000000	-0.00042110582580789924
152	0x3f28aa7a60000000	0.00018818610988091677
153	0x3f014e2de0000000	3.300740718259476e-05
154	0xbf1c81f840000000	-0.00010874822328332812
155	0xbf34251be0000000	-0.0003073876432608813
156	0x3f05cddfc0000000	4.158820229349658e-05
157	0x3f297b03c0000000	0.00019440098549239337
158	0xbf303d0380000000	-0.0002477773232385516
159	0x3f0fb7ed00000000	6.0498161474242806e-05
160	0x3f1742e460000000	8.873480692273006e-05
161	0xbf14499340000000	-7.739030115772039e-05
162	0xbf22d13560000000	-0.00014356400060933083
163	0x3f196ac040000000	9.695814514998347e-05
164	0x3f04b5a1e0000000	3.95002389268484e-05
165	0xbf25e527c0000000	-0.00016704664449207485
166	0x3f2470c140000000	0.00015594824799336493
167	0x3f197d3d60000000	9.723364928504452e-05
168	0x3eeb390740000000	1.2980826795683242e-05
169	0xbf2d12d6c0000000	-0.00022181388339959085
170	0xbf18380dc0000000	-9.238799975719303e-05
171	0xbf1612ba60000000	-8.4202409198042e-05
172	0x3f07a44a00000000	4.5093067456036806e-05
173	0x3f30c1c1c0000000	0.00025568943237885833
174	0x3f01cdd460000000	3.3958476706175134e-05
175	0x3effbd6bc0000000	3.0269551643868908e-05
176	0x3f1f34d9c0000000	0.00011904315033461899
177	0x3f1d7d22c0000000	0.0001124908885685727
178	0x3f12278040000000	6.925316120032221e-05
179	0x3f2e51b900000000	0.0002313173608854413
180	0x3f11b81b80000000	6.759326788596809e-05
181	0xbf2346e2c0000000	-0.00014707105583511293
182	0xbf3511fe60000000	-0.0003215070755686611
183	0x3f208db200000000	0.00012629316188395023
184	0xbf1e682ee0000000	-0.00011599336721701548
185	0xbf20f45b80000000	-0.00012935273116454482
186	0x3f270ef680000000	0.00017592200310900807
187	0x3f1bbd0940000000	0.00010581368405837566
188	0xbf29e02c60000000	-0.00019741574942599982
189	0x3eff3c8e40000000	2.97894912364427e-05
190	0x3f37362640000000	0.00035417970502749085
191	0x3f21078b20000000	0.00012992451956961304
192	0x3f21d57d80000000	0.00013606221182271838
193	0xbf2c825b00000000	-0.00021750794257968664
194	0x3f25fd1060000000	0.00016775917902123183
195	0x3f43266540000000	0.0005844110855832696
196	0x3f37497900000000	0.00035533146001398563
197	0x3f353ac9c0000000	0.0003239386132918298
198	0xbf247a77e0000000	-0.00015623772924300283
199	0x3f3ce75000000000	0.00044103339314460754
200	0x3f26b363c0000000	0.0001731929078232497
201	0x3efcc4ba00000000	2.743574441410601e-05
202	0x3ee958f360000000	1.2086612514394801e-05
203	0x3f317a8800000000	0.0002667028456926346
204	0xbf183ef600000000	-9.249092545360327e-05
205	0xbf10d7b900000000	-6.424967432394624e-05
206	0xbf3c3526c0000000	-0.0004304141621105373
207	0xbf3514c440000000	-0.0003216723562218249
208	0xbf3bbdcd60000000	-0.00042330040014348924
209	0xbf2213a260000000	-0.00013791424862574786
210	0xbf348dbb60000000	-0.0003136236628051847
211	0x3f24baf4e0000000	0.0001581596297910437
212	0xbf3cd6b360000000	-0.000440043251728639
213	0xbf31b7e4a0000000	-0.00027036029496230185
214	0x3f376249c0000000	0.00035681057488545775
215	0x3f212ada00000000	0.00013097678311169147
216	0x3f299794e0000000	0.00019525234529282898
217	0xbf13477380000000	-7.354395347647369e-05
218	0x3f0833ea60000000	4.616316800820641e-05
219	0x3f22118740000000	0.0001378514862153679
220	0xbf3383cb40000000	-0.0002977725234813988
221	0x3f190d4060000000	9.556489385431632e-05
222	0x3f1e151500000000	0.00011475506471469998
223	0x3f1c6a5c80000000	0.00010839643073268235
224	0x3f1a10ffe0000000	9.94354413705878e-05
225	0x3f17b021e0000000	9.036261326400563e-05
226	0x3f25c93440000000	0.00016621363465674222
227	0x3f1983cf00000000	9.733153274282813e-05
228	0xbf38283f00000000	-0.0003686097916215658
229	0x3f2b6e0b00000000	0.00020927318837493658
230	0xbf27b8a960000000	-0.00018097941938322037
231	0x3f32ef1680000000	0.00028890895191580057
232	0xbf0f48c660000000	-5.967002289253287e-05
233	0x3f133b8040000000	7.336588168982416e-05
234	0x3f2456ff20000000	0.0001551805908093229
235	0x3f2ec8f400000000	0.00023487070575356483
236	0xbf409ad1a0000000	-0.0005067370948381722
237	0x3f20d93280000000	0.00012854329543188214
238	0x3f0e4d01c0000000	5.7794204622041434e-05
239	0x3f43543c00000000	0.0005898755043745041
240	0xbf30f9b980000000	-0.00025902537163347006
241	0x3f2cabf1c0000000	0.00021874738740734756
242	0x3f2a1b9300000000	0.00019918603356927633
243	0x3f11a8d3e0000000	6.736558134434745e-05
244	0x3f23bb61c0000000	0.0001505429099779576
245	0x3f301ddd40000000	0.00024592067347839475
246	0xbf1867c600000000	-9.309907909482718e-05
247	0xbf36207f80000000	-0.00033763039391487837
248	0x3f177c1560000000	8.958702528616413e-05
249	0xbf0a9cb380000000	-5.07585791638121e-05
250	0xbf07e58900000000	-4.557918873615563e-05
251	0xbf00c4d180000000	-3.1983989174477756e-05
252	0xbf137d1c20000000	-7.434353028656915e-05
253	0xbf3c691540000000	-0.00043350952910259366
254	0x3f2bbb1e60000000	0.00021157022274564952
255	0xbf11db51c0000000	-6.811796629335731e-05
