histograms/histogram_linear1.weight.mean_Hyper__Walker2DBulletEnv-v0_seed4_scale1.npy (npy, 62072 bytes, 1 tensors)

array f8 [7743]
0	0x0000000000000000	0.0
1	0x3efde43d60000000	2.8506814487627707e-05
2	0x3efb535200000000	2.6059598894789815e-05
3	0x3f04d04f60000000	3.969900353695266e-05
4	0xbf07cc9de0000000	-4.539353176369332e-05
5	0xbeff2f7e60000000	-2.9740831450908445e-05
6	0xbefdd08fe0000000	-2.843350921466481e-05
7	0xbf01778da0000000	-3.331566767883487e-05
8	0xbeff6d2000000000	-2.9970426112413406e-05
9	0xbf0aaaa240000000	-5.0862385251093656e-05
10	0xbf158be240000000	-8.21930734673515e-05
11	0xbf232c7720000000	-0.00014628366625402123
12	0xbf2a884500000000	-0.00020242540631443262
13	0xbf25977620000000	-0.0001647311873966828
14	0xbf25449100000000	-0.0001622607233002782
15	0xbf27525120000000	-0.00017792930884752423
16	0xbf27675e40000000	-0.0001785566855687648
17	0xbf24425cc0000000	-0.00015456564142368734
18	0xbf272b05a0000000	-0.00017675822891760617
19	0xbf26e46dc0000000	-0.00017465438577346504
20	0xbf2bf9bac0000000	-0.0002134361711796373
21	0xbf2d825c60000000	-0.00022513749718200415
22	0xbf30569800000000	-0.000249302014708519
23	0xbf29ff2f60000000	-0.00019833997066598386
24	0xbf31e9c2c0000000	-0.0002733326400630176
25	0xbf2f3dbd60000000	-0.0002383512182859704
26	0xbf335d1fe0000000	-0.0002954676456283778
27	0xbf32a368c0000000	-0.0002843981492333114
28	0xbf313dbe60000000	-0.00026307962252758443
29	0xbf310c3640000000	-0.0002601273008622229
30	0xbf32ff9980000000	-0.0002898931270465255
31	0xbf2b6cef00000000	-0.00020924012642353773
32	0xbf25214000000000	-0.00016120821237564087
33	0xbf20455d40000000	-0.00012413752847351134
34	0xbf140c0a40000000	-7.647335587535053e-05
35	0xbefbc99120000000	-2.650010173965711e-05
36	0xbee5a0ca60000000	-1.0313076018064748e-05
37	0x3f0751bbe0000000	4.447798346518539e-05
38	0x3f085277a0000000	4.639079634216614e-05
39	0x3f1be42a60000000	0.00010639675747370347
40	0x3f135f0e00000000	7.389567326754332e-05
41	0x3f06814520000000	4.2924806621158496e-05
42	0x3f102c3260000000	6.169373955344781e-05
43	0x3f119c2f00000000	6.717717042192817e-05
44	0x3ef626f900000000	2.1126019419170916e-05
45	0x3f03a137a0000000	3.744078640011139e-05
46	0x3eb2da1de0000000	1.1236678574277903e-06
47	0x3f01686320000000	3.32026720570866e-05
48	0x3f0152bf80000000	3.304144775029272e-05
49	0x3ef83b0de0000000	2.3108177629183047e-05
50	0x3ec64744c0000000	2.6557913770375308e-06
51	0x3f10677700000000	6.257690256461501e-05
52	0x3efb6f4f60000000	2.6163868824369274e-05
53	0x3f06804500000000	4.2917352402582765e-05
54	0x3effaca7c0000000	3.0207094823708758e-05
55	0xbef66be9a0000000	-2.1382840714068152e-05
56	0x3f150a19a0000000	8.025914576137438e-05
57	0x3efe80b320000000	2.9089673262205906e-05
58	0x3f024f7180000000	3.492417454253882e-05
59	0x3f09cce320000000	4.9210244469577447e-05
60	0x3f0254d9e0000000	3.496446515782736e-05
61	0x3eff1f7860000000	2.9681139494641684e-05
62	0x3ea4526240000000	6.056371830709395e-07
63	0xbedac36a00000000	-6.380876584444195e-06
64	0xbedbaf0160000000	-6.600288088520756e-06
65	0x3ee1864f80000000	8.3564045780804e-06
66	0x3ef431dce0000000	1.92592397070257e-05
67	0x3f06cf4ec0000000	4.35062320320867e-05
68	0x3eff8a8ec0000000	3.0080071155680344e-05
69	0x3f14d8f3a0000000	7.952677697176114e-05
70	0x3ef8a8ae60000000	2.3516569854109548e-05
71	0x3ef135fd40000000	1.6413589037256315e-05
72	0x3f04c18c00000000	3.958900924772024e-05
73	0x3f0adf3300000000	5.125402822159231e-05
74	0x3f127cb200000000	7.05226557329297e-05
75	0x3f179656c0000000	8.997826080303639e-05
76	0x3f1093a640000000	6.323530396912247e-05
77	0x3f205717e0000000	0.0001246658939635381
78	0x3f15ddaec0000000	8.341197099070996e-05
79	0x3f16b4d6a0000000	8.661804167786613e-05
80	0x3f0903c360000000	4.7711753722978756e-05
81	0x3f087da760000000	4.6712561015738174e-05
82	0x3f146cd660000000	7.791574898874387e-05
83	0x3f0f5bfc40000000	5.981315189274028e-05
84	0x3f0097c3a0000000	3.1648309231968597e-05
85	0x3f0706eac0000000	4.392055416246876e-05
86	0x3f193a0580000000	9.623201913200319e-05
87	0x3f18be5920000000	9.438914275960997e-05
88	0x3f1d551ac0000000	0.00011189437645953149
89	0x3f106fa0c0000000	6.269854202400893e-05
90	0x3f10fd5ee0000000	6.481067248387262e-05
91	0x3f0dd633c0000000	5.6909040722530335e-05
92	0x3f19a943a0000000	9.788966417545453e-05
93	0x3f05fc2260000000	4.1932868043659255e-05
94	0x3efabe1ac0000000	2.5503726647002622e-05
95	0x3ef1f2c540000000	1.711685399641283e-05
96	0xbeeee80c60000000	-1.4737338460690808e-05
97	0xbee0ab00a0000000	-7.947911399242003e-06
98	0xbefaaca440000000	-2.543867230997421e-05
99	0xbee17274a0000000	-8.319421795022208e-06
100	0x3ef778ff00000000	2.2385254851542413e-05
101	0x3f07839700000000	4.484943929128349e-05
102	0x3f02987a60000000	3.5468325222609565e-05
103	0x3efe868b80000000	2.9111448384355754e-05
104	0x3ef1f07540000000	1.7108239262597635e-05
105	0x3f229cf8c0000000	0.00014200722216628492
106	0x3f0d44fea0000000	5.5827160394983366e-05
107	0xbf09efb5e0000000	-4.946969784214161e-05
108	0xbef82f4da0000000	-2.3064401830197312e-05
109	0x3ef73b27a0000000	2.2154878024593927e-05
110	0xbf05979ec0000000	-4.1183979192283005e-05
111	0x3f01ae7a40000000	3.372488572495058e-05
112	0xbf06de9be0000000	-4.362023537396453e-05
113	0xbf0b38dbc0000000	-5.19220411661081e-05
114	0xbf0b870ca0000000	-5.250460890238173e-05
115	0xbf11527000000000	-6.607826799154282e-05
116	0xbf03ecbac0000000	-3.800339618464932e-05
117	0xbef473cbc0000000	-1.95048596651759e-05
118	0xbefb681d60000000	-2.6137064196518622e-05
119	0xbf0cb479e0000000	-5.4750413255533203e-05
120	0xbf1d615e00000000	-0.00011207710485905409
121	0xbf1210d320000000	-6.891525845276192e-05
122	0xbf139fe040000000	-7.486158574465662e-05
123	0xbecdcc1b00000000	-3.552113412297331e-06
124	0xbf03a1b360000000	-3.744438799913041e-05
125	0xbefa2c1860000000	-2.4959799702628516e-05
126	0xbf051ffbc0000000	-4.029261617688462e-05
127	0x3f0e272a40000000	5.7512261264491826e-05
128	0xbefb964be0000000	-2.630910421430599e-05
129	0x3ef31b0ce0000000	1.8220582205685787e-05
130	0x3f0a262580000000	4.987527790945023e-05
131	0x3f10a4ca60000000	6.349072646116838e-05
132	0x3f114278c0000000	6.584035872947425e-05
133	0x3eeac0c560000000	1.2756830074067693e-05
134	0x3ef723edc0000000	2.206835415563546e-05
135	0xbed42fe0c0000000	-4.812961378775071e-06
136	0x3efa1c27a0000000	2.4900416974560358e-05
137	0x3f03a9a260000000	3.750349787878804e-05
138	0x3f176cb060000000	8.935762889450416e-05
139	0x3f0f8f8a40000000	6.019726424710825e-05
140	0x3f17523840000000	8.896320650819689e-05
141	0x3e897eba40000000	1.899527717341698e-07
142	0x3f0fa2b380000000	6.0340025811456144e-05
143	0xbeeab3a600000000	-1.2732387403957546e-05
144	0xbeec3e8500000000	-1.3467892131302506e-05
145	0xbf0e885ec0000000	-5.8236495533492416e-05
146	0xbf1c1e74c0000000	-0.00010726535401772708
147	0xbf1b99cc60000000	-0.00010528860002523288
148	0xbf1adb5b00000000	-0.00010245078010484576
149	0xbf278ed8c0000000	-0.00017973323701880872
150	0xbf2fafecc0000000	-0.0002417541982140392
151	0xbf14acf0e0000000	-7.887096580816433e-05
152	0xbef6b18aa0000000	-2.164222860301379e-05
153	0xbf0badd440000000	-5.2793540817219764e-05
154	0xbf06172400000000	-4.213408101350069e-05
155	0xbf08392d20000000	-4.620236359187402e-05
156	0x3efecc5ac0000000	2.9371509299380705e-05
157	0x3f01871c40000000	3.343157732160762e-05
158	0x3efef04b60000000	2.9505396014428698e-05
159	0x3f0bf3d960000000	5.331523061613552e-05
160	0x3eea449500000000	1.2525510101113468e-05
161	0x3ed8bd8520000000	5.8985501709685195e-06
162	0x3f086cf840000000	4.658825491787866e-05
163	0x3f0addbb20000000	5.124308881931938e-05
164	0x3f11720380000000	6.654878961853683e-05
165	0x3f1a6e2cc0000000	0.00010082386143039912
166	0x3ef0a9b840000000	1.589104431332089e-05
167	0x3e92f5c000000000	2.8252543415874243e-07
168	0x3eeabb96c0000000	1.2747177606797777e-05
169	0xbf1da1df60000000	-0.00011303830979159102
170	0xbf25d9c2a0000000	-0.00016670704644639045
171	0xbf22772720000000	-0.00014088013267610222
172	0xbf01c02300000000	-3.385645686648786e-05
173	0xbf050ae240000000	-4.0135411836672574e-05
174	0xbef5bdbcc0000000	-2.0733987184939906e-05
175	0xbf08c06800000000	-4.7209905460476875e-05
176	0xbf111c31e0000000	-6.52699891361408e-05
177	0xbef2a8c500000000	-1.779485319275409e-05
178	0xbee9da3580000000	-1.2327374861342832e-05
179	0xbf07da3d80000000	-4.5495035010389984e-05
180	0x3f097c8fa0000000	4.86117678519804e-05
181	0x3f15bd93c0000000	8.293356222566217e-05
182	0x3f06f54dc0000000	4.378932499093935e-05
183	0xbf196907a0000000	-9.693249739939347e-05
184	0xbef7f762a0000000	-2.285609116370324e-05
185	0xbeee66a4c0000000	-1.4496303265332244e-05
186	0xbf13de8ae0000000	-7.579538942081854e-05
187	0xbf0e30fcc0000000	-5.758544284617528e-05
188	0xbf0322d1e0000000	-3.649905193015002e-05
189	0xbf16a46ca0000000	-8.637345308670774e-05
190	0xbed865f460000000	-5.816998509544646e-06
191	0xbf11a1d3a0000000	-6.726125866407529e-05
192	0xbef81e0040000000	-2.2999945940682665e-05
193	0xbf1be48a40000000	-0.00010640233813319355
194	0xbf0ce96a40000000	-5.514483927981928e-05
195	0x3ea3677740000000	5.782891321359784e-07
196	0x3eec2cffc0000000	1.343525764241349e-05
197	0x3f069d44e0000000	4.313341560191475e-05
198	0xbef6813a00000000	-2.1462241420522332e-05
199	0xbf1283a900000000	-7.062643999233842e-05
200	0xbf1521f180000000	-8.061443804763258e-05
201	0x3f010306a0000000	3.244747131248005e-05
202	0x3f038417c0000000	3.722379187820479e-05
203	0x3f06b16ac0000000	4.3283529521431774e-05
204	0xbee804e160000000	-1.145318219641922e-05
205	0x3f13274660000000	7.306448969757184e-05
206	0xbef8c65860000000	-2.3627077098353766e-05
207	0xbf01acfb20000000	-3.3713735319906846e-05
208	0x3ed1c146a0000000	4.233118033880601e-06
209	0x3efaeddd80000000	2.5681649276521057e-05
210	0x3f10164e40000000	6.136753654573113e-05
211	0xbf0656aa60000000	-4.2607378418324515e-05
212	0xbf158b6500000000	-8.218578295782208e-05
213	0xbef98e23a0000000	-2.4371367544517852e-05
214	0xbee7b80fa0000000	-1.1310095032968093e-05
215	0x3f0866b500000000	4.65415942016989e-05
216	0x3efb4c83c0000000	2.6034245820483193e-05
217	0xbec51447e0000000	-2.512839046175941e-06
218	0xbec9b9c460000000	-3.0667367809655843e-06
219	0xbeb14a85e0000000	-1.0306301874152268e-06
220	0xbf0e408980000000	-5.7701297919265926e-05
221	0xbeebe3ede0000000	-1.3299154488777276e-05
222	0x3eff1e9ec0000000	2.967797263409011e-05
223	0xbf08d8bec0000000	-4.739124415209517e-05
224	0x3f092dd3a0000000	4.802515104529448e-05
225	0xbf1f39f9c0000000	-0.00011911951878573745
226	0xbf0b524180000000	-5.211126699578017e-05
227	0xbf02e6aae0000000	-3.6050882044946775e-05
228	0xbf126d71a0000000	-7.029539119685069e-05
229	0xbf1a2b35e0000000	-9.982601477531716e-05
230	0xbf18b7ade0000000	-9.428976773051545e-05
231	0xbf222d7840000000	-0.00013868420501239598
232	0xbf04bba340000000	-3.954498242819682e-05
233	0x3f02b2e260000000	3.5665067116497084e-05
234	0x3f084433a0000000	4.628450915333815e-05
235	0x3f0831fc00000000	4.6148779802024364e-05
236	0x3f23e62ce0000000	0.0001518182543804869
237	0x3f1a6657e0000000	0.00010070716234622523
238	0x3f1b99b4c0000000	0.0001052872248692438
239	0x3f1e493580000000	0.00011553181684575975
240	0x3eddccf520000000	7.1050203587219585e-06
241	0xbf08f7a180000000	-4.762136086355895e-05
242	0x3f0823a1e0000000	4.604184869094752e-05
243	0xbef6dff2a0000000	-2.181510535592679e-05
244	0xbf202509e0000000	-0.00012317414802964777
245	0xbef4415d20000000	-1.9316985344630666e-05
246	0x3eeb9ebb00000000	1.3170261809136719e-05
247	0xbefbb793e0000000	-2.6433086532051675e-05
248	0xbf02875360000000	-3.534053030307405e-05
249	0x3f1182cec0000000	6.679903890471905e-05
250	0xbeeb58dfc0000000	-1.3040144040132873e-05
251	0x3f0f50e960000000	5.9730646171374246e-05
252	0x3f0cb5d1e0000000	5.476042497321032e-05
253	0xbf063f4a60000000	-4.243322109687142e-05
254	0x3f151d3940000000	8.054410864133388e-05
255	0x3f0a0ff460000000	4.970993541064672e-05
